model.tflite (tflite, 665456 bytes, 14 tensors)

TFLITE_COMPATIBLE_CNN/conv2d/BiasAdd/ReadVariableOp/resource f4 [16]
0.120572075 -0.32460704 0.17808303 0.0012457274 0.06733686 -0.009731076 -0.24718416 0.07078632
0.1872664 -0.09029973 0.033154175 -0.03916732 -0.11637328 0.059154633 -0.004270263 0.08697792
00000000: 7eee f63d e532 a6be 665b 363e ad47 a33a
00000010: e8e7 893d 176f 1fbc d81d 7dbe 6bf8 903d
00000020: c3c2 3f3e 11ef b8bd accc 073d e96d 20bd
00000030: 1d55 eebd 214c 723d 90ed 8bbb 7b21 b23d

TFLITE_COMPATIBLE_CNN/conv2d_1/BiasAdd/ReadVariableOp/resource f4 [32]
-0.07112953 0.06299194 0.0030986066 -0.110101506 -0.1514023 -0.012976059 -0.00082480704 -0.042424213
0.011054875 -0.18597315 0.00093432213 -0.049402263 -0.12067163 -0.112938926 0.000692145 -0.008466253
-0.10894837 -0.057438456 -0.055512175 -0.014682633 -0.19600707 0.09317195 -0.036538657 0.12657385
0.019155705 -0.13961145 0.073413685 0.020876953 0.09317717 -0.008126312 -0.027164387 -0.028373014
00000000: 5cac 91bd eb01 813d fe11 4b3b e67c e1bd
00000010: 3409 1bbe 8999 54bc dd37 58ba 03c5 2dbd
00000020: 821f 353c bf6f 3ebe 4ced 743a 075a 4abd
00000030: b022 f7bd 864c e7bd 1171 353a 0ab6 0abc
00000040: 5320 dfbd 9644 6bbd bc60 63bd 6d8f 70bc
00000050: 14b6 48be efd0 be3d 8fa9 15bd 939c 013e
00000060: 6dec 9c3c 4ef6 0ebe ea59 963d 2506 ab3c
00000070: acd3 be3d 3924 05bc d987 debc 866e e8bc

TFLITE_COMPATIBLE_CNN/conv2d_2/BiasAdd/ReadVariableOp/resource f4 [64]
-0.0106133185 0.02653893 -0.063186176 -0.042312786 0.028132163 -0.08847372 -0.15923972 -0.02256041
0.11636627 0.022605496 -0.019602144 -0.18827741 -0.2036825 -0.01006965 -0.093731254 -0.06200654
-0.006922859 -0.02254104 -0.04184771 -0.035128508 -0.012797524 -0.031493675 0.04677257 0.050651617
0.006164908 0.117686935 -0.0006986323 -0.0060672252 0.06283718 -0.006840507 0.039308187 -0.20396645
-0.097726636 -0.15360907 -0.01692415 -0.0539628 -0.14274018 -0.038699538 -0.07085774 -0.035332546
-0.16832194 0.121366315 -0.026457697 0.032399602 -0.05120885 -0.031423472 -0.008238462 -0.04849107
0.033951014 -0.043171976 -0.1459823 0.023341086 -0.23963135 -0.24940577 -0.1514857 0.06253256
-0.14860083 0.0019849497 -0.14852689 -0.15246736 -0.0081392275 -0.035159685 0.04434454 -0.008204907
00000000: 7ce3 2dbc 2c68 d93c c167 81bd 2c50 2dbd
00000010: 6c75 e63c b631 b5bd bd0f 23be 9cd0 b8bc
00000020: 7051 ee3d 292f b93c ad94 a0bc cbcb 40be
00000030: 2592 50be 2cfb 24bc 2cf6 bfbd 92fa 7dbd
00000040: 26d9 e2bb fda7 b8bc 8168 2bbd e9e2 0fbd
00000050: b5ac 51bc 83ff 00bd 9894 3f3d 1278 4f3d
00000060: ff02 ca3b d905 f13d 6c24 37ba 93cf c6bb
00000070: c8b0 803d 5526 e0bb 9f01 213d 95dc 50be
00000080: e724 c8bd b24b 1dbe 84a4 8abc 1908 5dbd
00000090: 7b2a 12be 6883 1ebd dd1d 91bd dcb8 10bd
000000a0: 965c 2cbe e78e f83d d0bd d8bc 72b5 043d
000000b0: 5fc0 51bd e6b5 00bd 9dfa 06bc 929e 46bd
000000c0: 3810 0b3d 19d5 30bd 627c 15be ce35 bf3c
000000d0: ec61 75be 3a64 7fbe 111f 1bbe 1211 803d
000000e0: d12a 18be ee15 023b 6f17 18be 6720 1cbe
000000f0: 655a 05bc 9a03 10bd 9fa2 353d e06d 06bc

TFLITE_COMPATIBLE_CNN/dense/BiasAdd/ReadVariableOp/resource f4 [128]
-0.11557411 -0.004836348 -0.019279659 -0.023150088 0.029701374 0.12720162 -0.031350084 -0.03223364
-0.10613366 0.07413451 0.0009768073 0.03001516 0.07997909 0.069403954 0.113941096 0.086228184
-0.044474665 -0.055278502 -0.028974157 0.067031786 0.08980114 0.028627066 0.06297777 -0.027109036
-0.101000205 -0.027315026 -0.019664153 0.06514183 -0.014679442 0.08384966 0.16718972 -0.02721618
-0.0120430365 0.21874125 -0.047642082 0.0010092749 -0.007106041 -0.023543479 0.072302945 0.1047711
-0.035434827 -0.046705317 0.0827466 0.009934441 0.072358906 0.08752479 -0.017192747 -0.008708585
0.008818177 0.056730717 -0.048018347 -0.036379132 -0.0097670285 -0.016312644 -0.023130335 -0.020565076
-0.02107536 -0.054444466 -0.01767742 0.14232981 -0.024014283 -0.020157231 -0.010152016 -0.019445386
0.07061523 0.09672502 -0.022463972 0.003601588 -0.011224906 -0.009850447 -0.01948621 -0.028483996
-0.028202346 -0.029153649 -0.04152604 -0.034391604 -0.009930516 -0.050033413 0.12390333 0.005330907
-0.026441053 0.12454904 -0.028236957 -0.031991735 -0.04779019 0.09740879 0.09163854 -0.020739676
0.062015805 0.08592595 0.07114417 -0.030980594 0.038200036 0.014609657 -0.01792581 0.0027292497
-0.02793391 -0.0021655848 -0.056848094 -0.04182551 -0.03679182 -0.029247817 0.017908327 0.077589914
0.055324573 0.15176103 -0.011720576 0.085259445 0.098218374 0.17853372 -0.11084823 -0.0024869537
-0.011181027 -0.011472711 -0.059510134 -0.05199457 -0.031556062 -0.011637313 0.118464984 -0.10297333
0.057398755 0.076587826 0.107602574 0.07621175 -0.0031573623 -0.013358098 0.053873543 0.04354207
00000000: 1eb2 ecbd 3a7a 9ebb 60f0 9dbc 41a5 bdbc
00000010: 4c50 f33c 2441 023e f268 00bd 6c07 04bd
00000020: 9b5c d9bd d5d3 973d 3708 803a 5ae2 f53c
00000030: 14cc a33d a923 8e3d f359 e93d 6798 b03d
00000040: 112b 36bd b66b 62bd 365b edbc f647 893d
00000050: a9e9 b73d 4f83 ea3c 7dfa 803d c513 debc
00000060: 32d9 cebd c3c3 dfbc b816 a1bc 1469 853d
00000070: 0b82 70bc 5fb9 ab3d c833 2b3e 77f4 debc
00000080: 2850 45bc b5fd 5f3e 5824 43bd a549 843a
00000090: cbd9 e8bb 41de c0bc 9113 943d 3b92 d63d
000000a0: 1c24 11bd 134e 3fbd 0d77 a93d 11c4 223c
000000b0: e830 943d 3240 b33d ced7 8cbc 74ae 0ebc
000000c0: 1d7a 103c 785e 683d e3ae 44bd 4902 15bd
000000d0: e305 20bc 18a2 85bc d47b bdbc 1778 a8bc
000000e0: 3ca6 acbc 2901 5fbd 3dd0 90bc e8be 113e
000000f0: 9ab9 c4bc c720 a5bc a454 26bc ee4b 9fbc
00000100: b89e 903d c417 c63d 5d06 b8bc 9f08 6c3b
00000110: abe8 37bc c563 21bc 8ba1 9fbc 4557 e9bc
00000120: 9b08 e7bc a2d3 eebc 3517 2abd 36de 0cbd
00000130: 9ab3 22bc d6ef 4cbd 07c1 fd3d e4ae ae3b
00000140: e89a d8bc 9113 ff3d 3151 e7bc c409 03bd
00000150: a5bf 43bd 427e c73d fdac bb3d 41e6 a9bc
00000160: 4904 7e3d f2f9 af3d 09b4 913d 04cb fdbc
00000170: a477 1c3d 585d 6f3c 26d9 92bc 36dd 323b
00000180: a8d5 e4bc 7cec 0dbb 8cd9 68bd 3a51 2bbd
00000190: 05b3 16bd 1e99 efbc 7cb4 923c 76e7 9e3d
000001a0: 059c 623d 3e67 1b3e a907 40bc 819c ae3d
000001b0: b726 c93d 8bd1 363e 6604 e3bd 29fc 22bb
000001c0: a030 37bc 0af8 3bbc e6c0 73bd 42f8 54bd
000001d0: ee40 01bd 6eaa 3ebc c59d f23d aee3 d2bd
000001e0: f51a 6b3d 14da 9c3d bd5e dc3d e814 9c3d
000001f0: c0eb 4ebb eddb 5abc 81aa 5c3d 2b59 323d

TFLITE_COMPATIBLE_CNN/dense_1/BiasAdd/ReadVariableOp/resource f4 [12]
0.16596654 0.24430707 -0.23820844 0.112327434 0.09176412 -0.14214805 -0.11441683 0.015542174
-0.13838328 -0.02764759 -0.053185523 -0.2112833
00000000: 22f3 293e a22b 7a3e eaec 73be ed0b e63d
00000010: d4ee bb3d 428f 11be 5f53 eabd 9aa4 7e3c
00000020: 59b4 0dbe 337d e2bc 10d9 59bd a65a 58be

TFLITE_COMPATIBLE_CNN/tf_op_layer_Mul/Mul/y f4 [1, 256]
0.0 0.00015059065 0.0006022719 0.0013547717 0.0024076367 0.0037602326 0.005411745 0.0073611788
0.00960736 0.012148935 0.014984373 0.018111967 0.021529833 0.02523591 0.029227968 0.0335036
0.038060233 0.042895123 0.048005354 0.05338785 0.05903937 0.0649565 0.07113569 0.07757322
0.084265195 0.09120759 0.098396234 0.10582679 0.113494776 0.12139558 0.12952444 0.13787647
0.14644662 0.15522973 0.16422053 0.17341357 0.18280336 0.1923842 0.20215034 0.2120959
0.22221488 0.2325012 0.24294862 0.25355092 0.26430163 0.27519435 0.28622246 0.29737934
0.30865827 0.32005247 0.33155507 0.34315914 0.35485765 0.3666436 0.3785099 0.39044937
0.40245485 0.41451904 0.42663476 0.43879467 0.45099142 0.4632177 0.47546616 0.4877294
0.5 0.5122706 0.5245338 0.53678226 0.54900855 0.5612053 0.5733652 0.5854809
0.59754515 0.6095506 0.62149006 0.6333564 0.6451423 0.65684086 0.66844493 0.6799475
0.6913417 0.7026207 0.71377754 0.72480565 0.73569834 0.7464491 0.75705135 0.7674988
0.7777851 0.7879041 0.79784966 0.8076158 0.81719667 0.8265864 0.8357795 0.84477025
0.8535534 0.86212355 0.8704756 0.8786044 0.88650525 0.8941732 0.90160376 0.90879244
0.9157348 0.92242676 0.9288643 0.9350435 0.94096065 0.9466122 0.95199466 0.95710486
0.96193975 0.9664964 0.970772 0.9747641 0.97847015 0.98188806 0.98501563 0.9878511
0.9903926 0.9926388 0.99458826 0.9962398 0.9975924 0.99864525 0.99939775 0.99984944
1.0 0.99984944 0.99939775 0.99864525 0.9975924 0.9962398 0.99458826 0.9926388
0.9903926 0.9878511 0.98501563 0.98188806 0.97847015 0.9747641 0.970772 0.9664964
0.96193975 0.95710486 0.95199466 0.9466122 0.94096065 0.9350435 0.9288643 0.92242676
0.9157348 0.90879244 0.90160376 0.8941732 0.88650525 0.8786044 0.8704756 0.86212355
0.8535534 0.84477025 0.8357795 0.8265864 0.81719667 0.8076158 0.79784966 0.7879041
0.7777851 0.7674988 0.75705135 0.7464491 0.73569834 0.72480565 0.71377754 0.7026207
0.6913417 0.6799475 0.66844493 0.65684086 0.6451423 0.6333564 0.62149006 0.6095506
0.59754515 0.5854809 0.5733652 0.5612053 0.54900855 0.53678226 0.5245338 0.5122706
0.5 0.4877294 0.47546616 0.4632177 0.45099142 0.43879467 0.42663476 0.41451904
0.40245485 0.39044937 0.3785099 0.3666436 0.35485765 0.34315914 0.33155507 0.32005247
0.30865827 0.29737934 0.28622246 0.27519435 0.26430163 0.25355092 0.24294862 0.2325012
0.22221488 0.2120959 0.20215034 0.1923842 0.18280336 0.17341357 0.16422053 0.15522973
0.14644662 0.13787647 0.12952444 0.12139558 0.113494776 0.10582679 0.098396234 0.09120759
0.084265195 0.07757322 0.07113569 0.0649565 0.05903937 0.05338785 0.048005354 0.042895123
0.038060233 0.0335036 0.029227968 0.02523591 0.021529833 0.018111967 0.014984373 0.012148935
0.00960736 0.0073611788 0.005411745 0.0037602326 0.0024076367 0.0013547717 0.0006022719 0.00015059065
00000000: 0000 0000 dfe7 1d39 c8e1 1d3a 9892 b13a
00000010: 71c9 1d3b 3c6e 763b 0255 b13b 0b36 f13b
00000020: 3068 1d3c 540c 473c 0481 753c 8c5f 943c
00000030: 555f b03c 8abb ce3c 7e6f ef3c 123b 093d
00000040: 0ce5 1b3d ccb2 2f3d 43a1 443d 38ad 5a3d
00000050: 44d3 713d ea07 853d 97af 913d b5de 9e3d
00000060: 3b93 ac3d 0ccb ba3d f783 c93d b7bb d83d
00000070: f36f e83d 3f9e f83d 0ea2 043e 7d2f 0d3e
00000080: 1af6 153e 8bf4 1e3e 6d29 283e 5493 313e
00000090: ce30 3b3e 5d00 453e 8000 4f3e ab2f 593e
000000a0: 4c8c 633e cb14 6e3e 86c7 783e 6dd1 813e
000000b0: 8b52 873e 46e6 8c3e c08b 923e 1b42 983e
000000c0: 7508 9e3e ebdd a33e 96c1 a93e 8eb2 af3e
000000d0: e7af b53e b6b8 bb3e 0dcc c13e fbe8 c73e
000000e0: 900e ce3e d73b d43e df6f da3e b2a9 e03e
000000f0: 59e8 e63e df2a ed3e 4d70 f33e abb7 f93e
00000100: 0000 003f 2b24 033f d947 063f 906a 093f
00000110: d38b 0c3f 27ab 0f3f 10c8 123f 14e2 153f
00000120: b8f8 183f 820b 1c3f f919 1f3f a523 223f
00000130: 0c28 253f b926 283f 351f 2b3f 0a11 2e3f
00000140: c5fb 303f f3de 333f 20ba 363f dd8c 393f
00000150: ba56 3c3f 4a17 3f3f 1ece 413f cd7a 443f
00000160: ed1c 473f 15b4 493f e03f 4c3f e9bf 4e3f
00000170: cd33 513f 2b9b 533f a5f5 553f dd42 583f
00000180: 7a82 5a3f 21b4 5c3f 7dd7 5e3f 38ec 603f
00000190: 02f2 623f 89e8 643f 81cf 663f 9fa6 683f
000001a0: 996d 6a3f 2924 6c3f 0dca 6d3f 035f 6f3f
000001b0: cce2 703f 2d55 723f ecb5 733f d304 753f
000001c0: af41 763f 4f6c 773f 8484 783f 248a 793f
000001d0: 057d 7a3f 045d 7b3f fc29 7c3f cfe3 7c3f
000001e0: 5f8a 7d3f 941d 7e3f 569d 7e3f 9209 7f3f
000001f0: 3762 7f3f 37a7 7f3f 88d8 7f3f 22f6 7f3f
00000200: 0000 803f 22f6 7f3f 88d8 7f3f 37a7 7f3f
00000210: 3762 7f3f 9209 7f3f 569d 7e3f 941d 7e3f
00000220: 5f8a 7d3f cfe3 7c3f fc29 7c3f 045d 7b3f
00000230: 057d 7a3f 248a 793f 8484 783f 4f6c 773f
00000240: af41 763f d304 753f ecb5 733f 2d55 723f
00000250: cce2 703f 035f 6f3f 0dca 6d3f 2924 6c3f
00000260: 996d 6a3f 9fa6 683f 81cf 663f 89e8 643f
00000270: 02f2 623f 38ec 603f 7dd7 5e3f 21b4 5c3f
00000280: 7a82 5a3f dd42 583f a5f5 553f 2b9b 533f
00000290: cd33 513f e9bf 4e3f e03f 4c3f 15b4 493f
000002a0: ed1c 473f cd7a 443f 1ece 413f 4a17 3f3f
000002b0: ba56 3c3f dd8c 393f 20ba 363f f3de 333f
000002c0: c5fb 303f 0a11 2e3f 351f 2b3f b926 283f
000002d0: 0c28 253f a523 223f f919 1f3f 820b 1c3f
000002e0: b8f8 183f 14e2 153f 10c8 123f 27ab 0f3f
000002f0: d38b 0c3f 906a 093f d947 063f 2b24 033f
00000300: 0000 003f abb7 f93e 4d70 f33e df2a ed3e
00000310: 59e8 e63e b2a9 e03e df6f da3e d73b d43e
00000320: 900e ce3e fbe8 c73e 0dcc c13e b6b8 bb3e
00000330: e7af b53e 8eb2 af3e 96c1 a93e ebdd a33e
00000340: 7508 9e3e 1b42 983e c08b 923e 46e6 8c3e
00000350: 8b52 873e 6dd1 813e 86c7 783e cb14 6e3e
00000360: 4c8c 633e ab2f 593e 8000 4f3e 5d00 453e
00000370: ce30 3b3e 5493 313e 6d29 283e 8bf4 1e3e
00000380: 1af6 153e 7d2f 0d3e 0ea2 043e 3f9e f83d
00000390: f36f e83d b7bb d83d f783 c93d 0ccb ba3d
000003a0: 3b93 ac3d b5de 9e3d 97af 913d ea07 853d
000003b0: 44d3 713d 38ad 5a3d 43a1 443d ccb2 2f3d
000003c0: 0ce5 1b3d 123b 093d 7e6f ef3c 8abb ce3c
000003d0: 555f b03c 8c5f 943c 0481 753c 540c 473c
000003e0: 3068 1d3c 0b36 f13b 0255 b13b 3c6e 763b
000003f0: 71c9 1d3b 9892 b13a c8e1 1d3a dfe7 1d39

TFLITE_COMPATIBLE_CNN/dense/MatMul f4 [128, 640]
-0.17488858 0.0021440664 0.20257856 0.19949833 -0.22832967 -0.010671403 0.04875251 0.2110196
-0.043341465 0.13669041 -0.06557731 -0.07431911 -0.027273238 0.21748608 -0.14760804 -0.18021984
0.09514419 0.19496305 0.017597992 -0.27557114 -0.05370535 0.076411694 0.03550634 -0.1535591
0.14184222 0.03434375 0.1367475 -0.22329384 0.011125662 -0.06363774 0.11281725 0.13152696
-0.11402599 0.18201707 0.20531774 -0.021247376 0.15938143 0.023071969 -0.016368924 -0.013376426
-0.07991068 0.055738904 -0.08267158 -0.0977024 -0.0075068944 0.032052726 -0.27971852 -0.11567269
0.12630937 0.16104823 0.06755417 -0.05511436 -0.09916365 0.08170097 -0.13512886 0.07976566
-0.24499322 -0.0053607775 0.02335166 0.026312523 -0.091396295 0.20952418 -0.12156652 0.005882975
-0.049337957 -0.105687596 -0.06460788 -0.16366486 0.04916265 0.06388801 -0.14686716 -0.021077083
-0.018620435 -0.11997511 0.1099168 -0.13652034 -0.057570864 0.035910904 0.028824229 -0.12133328
-0.22166197 0.06343867 0.2691002 -0.14115423 -0.15557131 -0.02027953 0.1031777 -0.13119443
-0.17181365 -0.098335594 -0.050966494 -0.133532 0.017298546 -0.006694916 0.2622587 -0.08037147
-0.10067015 -0.10078728 0.018667148 -0.063604884 0.015417262 -0.115458496 0.11029044 0.047727272
-0.12830707 -0.0066153985 -0.0063808123 0.04238839 -0.0029791768 -0.084309615 -0.08827651 -0.1375555
-0.13303612 0.043842584 0.21830548 0.024582544 0.03014381 -0.020586079 -0.063753895 -0.006067198
-0.02957004 -0.08723939 -0.08967649 -0.026442772 0.10420215 0.10502081 0.060277194 -0.00065328204
0.14758863 -0.049079865 -0.09875673 0.0044074687 0.09471111 -0.15331848 -0.05270767 -0.114309125
-0.016559592 0.16872935 0.16448945 -0.1926314 -0.08015312 0.09615581 -0.097712785 -0.030513337
-0.022929009 -0.12311503 0.046118833 0.043522123 -0.0036744273 -0.11627678 0.0774546 -0.040643673
-0.16507566 -0.16396508 -0.1657513 -0.080484726 -0.09306937 -0.087785035 -0.11918733 -0.10097875
0.05114645 -0.10209057 -0.23063515 -0.025946401 0.07941748 0.01683597 0.036361944 0.09799607
0.08284449 0.11315269 -0.06750394 0.015109164 -0.020847598 -0.26861113 -0.08044281 0.0006103425
-0.076435044 0.06087872 -0.019490913 0.03773429 -0.2358949 -0.051257446 0.12168566 -0.015399899
0.009258832 -0.05553611 0.027879985 -0.025987275 -0.084094174 0.057760485 -0.038744155 0.0052933316
0.007300424 0.10600917 -0.06175425 -0.15155867 0.047790334 -0.09482747 0.14364332 0.10715062
-0.013960773 0.051033646 0.05189471 0.12312293 0.1495272 -0.005807455 -0.10485471 -0.03150479
0.1257161 -0.07203994 0.026374081 0.10582498 -0.050550885 0.07967701 0.111019656 -0.07761488
0.08225314 -0.14670864 -0.25361374 0.022898119 -0.14053135 0.106410086 -0.28935313 -0.0025770585
0.09897192 -0.08108834 -0.06002889 -0.096861996 0.1199054 0.057940636 0.20452964 -0.10316025
0.010341446 0.042276274 0.21294619 0.1694776 0.031410534 -0.032076284 -0.16625218 0.09135838
-0.029254815 -0.027837785 -0.028012091 0.12863822 0.019495351 0.08084801 0.025853423 -0.024195936
0.2069513 -0.08395819 0.0032944812 -0.097037315 0.14558725 -0.09211161 0.051092003 0.057010174
00000000: fe15 33be 7783 0c3b c170 4f3e 4a49 4c3e
00000010: 41cf 69be 1cd7 2ebc b6b0 473d 8615 583e
00000020: d286 31bd 92f8 0b3e 664d 86bd 9e34 98bd
00000030: 206c dfbc acb4 5e3e 9026 17be 8d8b 38be
00000040: f5da c23d 65a4 473e aa29 903c a917 8dbe
00000050: 24fa 5bbd bc7d 9c3d 196f 113d 993e 1dbe
00000060: 163f 113e 08ac 0c3d 8907 0c3e 24a7 64be
00000070: 6948 363c 8154 82bd bb0c e73d 01af 063e
00000080: 7586 e9bd af62 3a3e d03e 523e fa0e aebc
00000090: e334 233e 6d01 bd3c 1f18 86bc cc28 5bbc
000000a0: 36a8 a3bd 7a4e 643d b84f a9bd 3218 c8bd
000000b0: 65fc f5bb b849 033d 4437 8fbe cee5 ecbd
000000c0: 3e57 013e d4e9 243e d759 8a3d 98bf 61bd
000000d0: 5016 cbbd d752 a73d 385f 0abe 2e5c a33d
000000e0: 81df 7abe 76a9 afbb fb4b bf3c 5c8d d73c
000000f0: fb2d bbbd 828d 563e def7 f8bd f9c5 c03b
00000100: 9916 4abd bd72 d8bd 2351 84bd c397 27be
00000110: c65e 493d b8d7 823d 5864 16be d9a9 acbc
00000120: e289 98bc 83b5 f5bd 0f1c e13d fdcb 0bbe
00000130: 6dcf 6bbd 5017 133d ca20 ec3c 957d f8bd
00000140: 5bfb 62be 22ec 813d 80c7 893e bc8a 10be
00000150: 164e 1fbe 4221 a6bc d44e d33d d557 06be
00000160: ebef 2fbe 2c64 c9bd 3ec2 50bd 9dbc 08be
00000170: aeb5 8d3c 0761 dbbb c646 863e cc99 a4bd
00000180: 272c cebd 9069 cebd d9eb 983c 4743 82bd
00000190: af98 7c3c 8175 ecbd f4df e13d ac7d 433d
000001a0: ee62 03be fcc5 d8bb 2216 d1bb 739f 2d3d
000001b0: 4b3e 43bb 85aa acbd 51ca b4bd 59db 0cbe
000001c0: 9f3a 08be 4894 333d 798b 5f3e 5561 c93c
000001d0: 27f0 f63c 23a4 a8bc 6791 82bd 58cf c6bb
000001e0: de3c f2bc 91aa b2bd 4fa8 b7bd 839e d8bc
000001f0: f067 d53d 2715 d73d 38e5 763d 0441 2bba
00000200: 7921 173e f807 49bd f840 cabd 876c 903b
00000210: e6f7 c13d 85ff 1cbe ffe3 57bd e71a eabd
00000220: fba7 87bc 63c7 2c3e ec6f 283e 2a41 45be
00000230: 5227 a4bd 56ed c43d a41d c8bd 1bf7 f9bc
00000240: 9ed5 bbbc bc23 fcbd 1ae7 3c3d 4144 323d
00000250: a9ce 70bb 8522 eebd 84a0 9e3d fb79 26bd
00000260: 9809 29be 76e6 27be b5ba 29be 2dd5 a4bd
00000270: 279b bebd a4c8 b3bd 7d18 f4bd f2cd cebd
00000280: f17e 513d dc14 d1bd 9f2b 6cbe 8c8d d4bc
00000290: a2a5 a23d 97eb 893c 43f0 143d 2ab2 c83d
000002a0: 5faa a93d 99bc e73d 813f 8abd 6d8c 773c
000002b0: 95c8 aabc 6687 89be 33bf a4bd 64ff 1f3a
000002c0: fa89 9cbd f75b 793d 68ab 9fbc 458f 1a3d
000002d0: 6f8e 71be 54f3 51bd 5536 f93d dc4f 7cbc
000002e0: 5bb2 173c d579 63bd 9164 e43c 44e3 d4bc
000002f0: 9139 acbd 4296 6c3d 31b2 1ebd af73 ad3b
00000300: 6538 ef3b 561b d93d 06f2 7cbd 3232 1bbe
00000310: ccbf 433d e834 c2bd 3c17 133e c971 db3d
00000320: babb 64bc a808 513d 8c8f 543d e027 fc3d
00000330: a91d 193e 774c bebb 11be d6bd 2b0b 01bd
00000340: b9bb 003e ad89 93bd 750e d83c c4ba d83d
00000350: 720e 4fbd b32d a33d 465e e33d 8df4 9ebd
00000360: 5674 a83d ca3a 16be a9d9 81be d694 bb3c
00000370: 73e7 0fbe 88ed d93d 1826 94be dee3 28bb
00000380: cab1 ca3d a511 a6bd dae0 75bd 955f c6bd
00000390: f690 f53d 2953 6d3d 3870 513e ae45 d3bd
000003a0: 2b6f 293c e329 2d3d 910e 5a3e 898b 2d3e
000003b0: 55a8 003d 6c62 03bd 033e 2abe 1a1a bb3d
000003c0: cba7 efbc 110c e4bc 9d79 e5bc bdb9 033e
000003d0: b7b4 9f3c a493 a53d 8fca d33c 8e36 c6bc
000003e0: 0beb 533e 46f2 abbd 39e8 573b 80bb c6bd
000003f0: d314 153e 03a5 bcbd d945 513d 8083 693d

TFLITE_COMPATIBLE_CNN/dense_1/MatMul f4 [12, 128]
0.096208036 0.19420557 -0.015648823 -0.14874983 0.09840128 0.13016291 -0.10433835 0.19643903
-0.067412615 0.15819854 0.15467729 -0.21958563 0.1106437 0.030220533 0.16935903 0.113140486
-0.1853251 -0.1804005 0.013435046 0.1106706 0.24533261 0.15135121 0.10738416 -0.08781675
0.016787231 0.16738826 -0.11769224 0.12675203 -0.16518177 0.26871678 0.2138505 0.035084177
0.012450545 0.08941017 -0.14041786 0.46788654 0.08485412 -0.17430219 0.17965734 0.11325807
-0.15482566 -0.19399542 -0.29714283 -0.47599322 0.14666899 0.2911383 -0.15536642 0.032385185
0.13196611 0.15251645 -0.15879174 -0.13049231 -0.15363158 -0.037565194 -0.12521185 -0.10779021
-0.10399169 0.17064425 -0.16614497 0.17200078 -0.09139829 0.030623619 -0.131334 -0.4246828
0.08374496 0.15882874 0.00545749 -0.44323584 -0.16948341 -0.17797737 -0.08858438 -0.11933985
-0.19810022 -0.061969154 -0.29113188 0.03212732 0.13864271 0.55805105 0.13759239 0.22718175
-0.29153883 0.14230783 -0.18915306 -0.08382943 0.061425917 0.22819233 -0.7568184 -0.07141618
0.077119395 -0.095144704 0.310947 -0.052647628 0.03112567 0.155209 -0.18236898 -0.20292373
-0.16370869 -0.26587686 0.052176286 -0.06911256 -0.28511655 -0.13761838 0.4050378 0.17493296
0.24510723 -0.03512461 -0.38609707 0.16543227 -0.13562651 0.1582086 0.14887367 0.15471919
-0.10020244 -0.11415964 0.25833553 -0.09917486 0.08327263 -0.18579163 0.23823293 -0.45527786
0.31617695 0.014667196 0.14944576 0.16439761 -0.044155587 -0.10451274 0.19337545 -0.036948778
-0.10705855 -0.7265718 0.027613789 0.017662322 -0.27943605 -0.5326764 -0.056563824 -0.29564404
0.086179 0.16020288 -0.9540824 0.20946522 0.24857147 0.33418858 0.4137538 0.24786392
-0.12186948 -0.75110376 -0.61878496 0.0059849494 0.4160524 -0.62753487 -1.2944944 0.05251828
-1.0831126 -0.12126327 -0.0090823 0.3923785 0.036524415 0.41008344 -0.7230615 -0.15820034
-0.056302804 0.34224698 0.07031857 0.15050134 -1.0446265 0.14371708 -0.2531054 0.044066377
0.16129868 -0.985198 0.6083775 0.7565123 0.34501693 0.56267005 0.055221025 -1.0058837
-1.5285207 -0.39024365 0.051570132 0.07360877 0.052026104 0.18098727 -0.11059721 -0.21062541
-0.14178956 -0.16708636 0.034808654 -0.60991645 -0.01302703 0.10582699 0.15965067 -0.00823844
0.19436729 0.49238282 0.109411635 0.2004753 0.17509077 -0.1692315 0.08040936 -0.034814302
0.079958074 -0.10563378 -0.34508327 -0.30628315 -0.6886418 -0.12810764 -1.0120212 -0.40404278
-0.38228515 0.21885793 -0.1113505 -0.044240914 0.061802898 -0.4131299 1.2441354 0.08526204
-0.5168993 -0.37802276 0.03991975 -0.9487236 -0.39193785 -0.9652258 -0.0041635614 -0.034642365
0.022467822 -0.38114035 0.062265057 -0.10159765 -0.25066507 0.08222575 0.004876086 0.22139932
-0.774959 0.28808758 -0.5358242 -0.15453103 0.4923031 0.4734543 -1.0955215 -0.6943396
0.04390061 -0.16546623 -0.6090714 -0.103937365 0.48595312 -0.11413322 -0.6033691 -1.0106865
-0.24004877 0.6092499 -0.42921126 -1.209723 0.22071283 -0.14134617 0.27103916 0.12704103
00000000: b808 c53d d3dd 463e f631 80bc e051 18be
00000010: 9c86 c93d 6d49 053e 58af d5bd 5027 493e
00000020: a00f 8abd ccfe 213e b963 1e3e 0edb 60be
00000030: 2a99 e23d 0d91 f73c 746c 2d3e 33b6 e73d
00000040: ddc5 3dbe e9ba 38be ab1e 5c3c 44a7 e23d
00000050: 7938 7b3e d0fb 1a3e 3aec db3d 45d9 b3bd
00000060: 6085 893c d467 2b3e a108 f1bd 49cb 013e
00000070: 6925 29be 3f95 893e a0fb 5a3e 6db4 0f3d
00000080: 5ffd 4b3c ae1c b73d b3c9 0fbe d38e ef3e
00000090: ffc7 ad3d 467c 32be 18f8 373e d9f3 e73d
000000a0: 9e8a 1ebe bca6 46be 1b23 98be 62b5 f3be
000000b0: 6530 163e 1410 953e 6018 1fbe 54a6 043d
000000c0: 2022 073e 462d 1c3e 4d9a 22be c79f 05be
000000d0: 9951 1dbe f6dd 19bd 8937 00be 1dc1 dcbd
000000e0: 98f9 d4bd 5ebd 2e3e e821 2abe f920 303e
000000f0: 072f bbbd 62de fa3c 6c7c 06be 0670 d9be
00000100: 7a82 ab3d 00a4 223e bfd4 b23b cfef e2be
00000110: 0f8d 2dbe b33f 36be ba6b b5bd 7468 f4bd
00000120: c9da 4abe 5ed3 7dbd 3d0f 95be f097 033d
00000130: 5bf8 0d3e 6fdc 0e3f 05e5 0c3e 55a2 683e
00000140: 9444 95be 25b9 113e 57b1 41be c4ae abbd
00000150: be99 7b3d 40ab 693e dabe 41bf a542 92bd
00000160: c6f0 9d3d 3adb c2bd 7234 9f3e 0aa5 57bd
00000170: 43fb fe3c 1cef 1e3e efbe 3abe 3dcb 4fbe
00000180: 40a3 27be 0321 88be cdb6 553d e38a 8dbd
00000190: ccfa 91be d5eb 0cbe 1d61 cf3e a021 333e
000001a0: 64fd 7a3e d3de 0fbd 84ae c5be 1467 293e
000001b0: ade1 0abe 6f01 223e 5772 183e b56e 1e3e
000001c0: f036 cdbd 88cc e9bd 8e44 843e 301c cbbd
000001d0: d78a aa3d 2940 3ebe 55f3 733e 2e1a e9be
000001e0: f2e1 a13e ae4e 703c 4f08 193e d957 283e
000001f0: 7ddc 34bd c70a d6bd 3704 463e 9a57 17bd
00000200: 8341 dbbd 9c00 3abf 5036 e23c 93b0 903c
00000210: 3e12 8fbe 7b5d 08bf 78af 67bd a85e 97be
00000220: 9e7e b03d 390c 243e bf3e 74bf 0d7e 563e
00000230: 8589 7e3e c41a ab3e 8ad7 d33e 0ad0 7d3e
00000240: b596 f9bd 5648 40bf b168 1ebf 651d c43b
00000250: d204 d53e 20a6 20bf feb1 a5bf 681d 573d
00000260: 6fa3 8abf e158 f8bd edcd 14bc d6e5 c83e
00000270: a09a 153d 75f6 d13e 8f1a 39bf 45ff 21be
00000280: c59d 66bd ff3a af3e 2f03 903d 061d 1a3e
00000290: 52b6 85bf 922a 133e 0897 81be f27e 343d
000002a0: 7b2b 253e f035 7cbf a1be 1b3f caaa 413f
000002b0: 0fa6 b03e 250b 103f 712f 623d ccc0 80bf
000002c0: 91a6 c3bf 04ce c7be 343b 533d 32c0 963d
000002d0: 5319 553d ba54 393e ca80 e2bd 30ae 57be
000002e0: 4831 11be b018 2bbe 8593 0e3d 7c23 1cbf
000002f0: 536f 55bc d2bb d83d 777b 233e 86fa 06bc
00000300: 3808 473e 9a19 fc3e 3513 e03d 6649 4d3e
00000310: ff4a 333e 064b 2dbe aaad a43d 7199 0ebd
00000320: 0fc1 a33d 8656 d8bd c1ae b0be 25d1 9cbe
00000330: d44a 30bf a62e 03be e989 81bf b2de cebe
00000340: e1ba c3be 4b1c 603e bb0b e4bd f635 35bd
00000350: 0925 7d3d c385 d3be d43f 9f3f dd9d ae3d
00000360: 8353 04bf 338c c1be e482 233d 8ddf 72bf
00000370: 14ac c8be 0a19 77bf 7c6e 88bb 27e5 0dbd
00000380: 700e b83c d424 c3be a509 7f3d 6e12 d0bd
00000390: 2c57 80be f965 a83d 93c7 9f3b 81b6 623e
000003a0: b763 46bf 3780 933e c62b 09bf 623d 1ebe
000003b0: 270f fc3e 9a68 f23e 0c3a 8cbf 3dc0 31bf
000003c0: 20d1 333d fb6f 29be 1aec 1bbf 1ddd d4bd
000003d0: d9ce f83e adbe e9bd 6676 1abf 2d5e 81bf
000003e0: 58cf 75be cdf7 1b3f 94c1 dbbe 34d8 9abf
000003f0: 8b02 623e 0dbd 10be a5c5 8a3e 0b17 023e

TFLITE_COMPATIBLE_CNN/tf_op_layer_BatchMatMulV2/BatchMatMulV2 f4 [129, 256]
1.0 1.0 1.0 1.0 1.0 1.0 1.0 1.0
1.0 1.0 1.0 1.0 1.0 1.0 1.0 1.0
1.0 1.0 1.0 1.0 1.0 1.0 1.0 1.0
1.0 1.0 1.0 1.0 1.0 1.0 1.0 1.0
1.0 1.0 1.0 1.0 1.0 1.0 1.0 1.0
1.0 1.0 1.0 1.0 1.0 1.0 1.0 1.0
1.0 1.0 1.0 1.0 1.0 1.0 1.0 1.0
1.0 1.0 1.0 1.0 1.0 1.0 1.0 1.0
1.0 1.0 1.0 1.0 1.0 1.0 1.0 1.0
1.0 1.0 1.0 1.0 1.0 1.0 1.0 1.0
1.0 1.0 1.0 1.0 1.0 1.0 1.0 1.0
1.0 1.0 1.0 1.0 1.0 1.0 1.0 1.0
1.0 1.0 1.0 1.0 1.0 1.0 1.0 1.0
1.0 1.0 1.0 1.0 1.0 1.0 1.0 1.0
1.0 1.0 1.0 1.0 1.0 1.0 1.0 1.0
1.0 1.0 1.0 1.0 1.0 1.0 1.0 1.0
1.0 1.0 1.0 1.0 1.0 1.0 1.0 1.0
1.0 1.0 1.0 1.0 1.0 1.0 1.0 1.0
1.0 1.0 1.0 1.0 1.0 1.0 1.0 1.0
1.0 1.0 1.0 1.0 1.0 1.0 1.0 1.0
1.0 1.0 1.0 1.0 1.0 1.0 1.0 1.0
1.0 1.0 1.0 1.0 1.0 1.0 1.0 1.0
1.0 1.0 1.0 1.0 1.0 1.0 1.0 1.0
1.0 1.0 1.0 1.0 1.0 1.0 1.0 1.0
1.0 1.0 1.0 1.0 1.0 1.0 1.0 1.0
1.0 1.0 1.0 1.0 1.0 1.0 1.0 1.0
1.0 1.0 1.0 1.0 1.0 1.0 1.0 1.0
1.0 1.0 1.0 1.0 1.0 1.0 1.0 1.0
1.0 1.0 1.0 1.0 1.0 1.0 1.0 1.0
1.0 1.0 1.0 1.0 1.0 1.0 1.0 1.0
1.0 1.0 1.0 1.0 1.0 1.0 1.0 1.0
1.0 1.0 1.0 1.0 1.0 1.0 1.0 1.0
00000000: 0000 803f 0000 803f 0000 803f 0000 803f
00000010: 0000 803f 0000 803f 0000 803f 0000 803f
00000020: 0000 803f 0000 803f 0000 803f 0000 803f
00000030: 0000 803f 0000 803f 0000 803f 0000 803f
00000040: 0000 803f 0000 803f 0000 803f 0000 803f
00000050: 0000 803f 0000 803f 0000 803f 0000 803f
00000060: 0000 803f 0000 803f 0000 803f 0000 803f
00000070: 0000 803f 0000 803f 0000 803f 0000 803f
00000080: 0000 803f 0000 803f 0000 803f 0000 803f
00000090: 0000 803f 0000 803f 0000 803f 0000 803f
000000a0: 0000 803f 0000 803f 0000 803f 0000 803f
000000b0: 0000 803f 0000 803f 0000 803f 0000 803f
000000c0: 0000 803f 0000 803f 0000 803f 0000 803f
000000d0: 0000 803f 0000 803f 0000 803f 0000 803f
000000e0: 0000 803f 0000 803f 0000 803f 0000 803f
000000f0: 0000 803f 0000 803f 0000 803f 0000 803f
00000100: 0000 803f 0000 803f 0000 803f 0000 803f
00000110: 0000 803f 0000 803f 0000 803f 0000 803f
00000120: 0000 803f 0000 803f 0000 803f 0000 803f
00000130: 0000 803f 0000 803f 0000 803f 0000 803f
00000140: 0000 803f 0000 803f 0000 803f 0000 803f
00000150: 0000 803f 0000 803f 0000 803f 0000 803f
00000160: 0000 803f 0000 803f 0000 803f 0000 803f
00000170: 0000 803f 0000 803f 0000 803f 0000 803f
00000180: 0000 803f 0000 803f 0000 803f 0000 803f
00000190: 0000 803f 0000 803f 0000 803f 0000 803f
000001a0: 0000 803f 0000 803f 0000 803f 0000 803f
000001b0: 0000 803f 0000 803f 0000 803f 0000 803f
000001c0: 0000 803f 0000 803f 0000 803f 0000 803f
000001d0: 0000 803f 0000 803f 0000 803f 0000 803f
000001e0: 0000 803f 0000 803f 0000 803f 0000 803f
000001f0: 0000 803f 0000 803f 0000 803f 0000 803f
00000200: 0000 803f 0000 803f 0000 803f 0000 803f
00000210: 0000 803f 0000 803f 0000 803f 0000 803f
00000220: 0000 803f 0000 803f 0000 803f 0000 803f
00000230: 0000 803f 0000 803f 0000 803f 0000 803f
00000240: 0000 803f 0000 803f 0000 803f 0000 803f
00000250: 0000 803f 0000 803f 0000 803f 0000 803f
00000260: 0000 803f 0000 803f 0000 803f 0000 803f
00000270: 0000 803f 0000 803f 0000 803f 0000 803f
00000280: 0000 803f 0000 803f 0000 803f 0000 803f
00000290: 0000 803f 0000 803f 0000 803f 0000 803f
000002a0: 0000 803f 0000 803f 0000 803f 0000 803f
000002b0: 0000 803f 0000 803f 0000 803f 0000 803f
000002c0: 0000 803f 0000 803f 0000 803f 0000 803f
000002d0: 0000 803f 0000 803f 0000 803f 0000 803f
000002e0: 0000 803f 0000 803f 0000 803f 0000 803f
000002f0: 0000 803f 0000 803f 0000 803f 0000 803f
00000300: 0000 803f 0000 803f 0000 803f 0000 803f
00000310: 0000 803f 0000 803f 0000 803f 0000 803f
00000320: 0000 803f 0000 803f 0000 803f 0000 803f
00000330: 0000 803f 0000 803f 0000 803f 0000 803f
00000340: 0000 803f 0000 803f 0000 803f 0000 803f
00000350: 0000 803f 0000 803f 0000 803f 0000 803f
00000360: 0000 803f 0000 803f 0000 803f 0000 803f
00000370: 0000 803f 0000 803f 0000 803f 0000 803f
00000380: 0000 803f 0000 803f 0000 803f 0000 803f
00000390: 0000 803f 0000 803f 0000 803f 0000 803f
000003a0: 0000 803f 0000 803f 0000 803f 0000 803f
000003b0: 0000 803f 0000 803f 0000 803f 0000 803f
000003c0: 0000 803f 0000 803f 0000 803f 0000 803f
000003d0: 0000 803f 0000 803f 0000 803f 0000 803f
000003e0: 0000 803f 0000 803f 0000 803f 0000 803f
000003f0: 0000 803f 0000 803f 0000 803f 0000 803f

TFLITE_COMPATIBLE_CNN/tf_op_layer_BatchMatMulV2_1/BatchMatMulV2_1 f4 [129, 256]
0.0 0.0 0.0 0.0 0.0 0.0 0.0 0.0
0.0 0.0 0.0 0.0 0.0 0.0 0.0 0.0
0.0 0.0 0.0 0.0 0.0 0.0 0.0 0.0
0.0 0.0 0.0 0.0 0.0 0.0 0.0 0.0
0.0 0.0 0.0 0.0 0.0 0.0 0.0 0.0
0.0 0.0 0.0 0.0 0.0 0.0 0.0 0.0
0.0 0.0 0.0 0.0 0.0 0.0 0.0 0.0
0.0 0.0 0.0 0.0 0.0 0.0 0.0 0.0
0.0 0.0 0.0 0.0 0.0 0.0 0.0 0.0
0.0 0.0 0.0 0.0 0.0 0.0 0.0 0.0
0.0 0.0 0.0 0.0 0.0 0.0 0.0 0.0
0.0 0.0 0.0 0.0 0.0 0.0 0.0 0.0
0.0 0.0 0.0 0.0 0.0 0.0 0.0 0.0
0.0 0.0 0.0 0.0 0.0 0.0 0.0 0.0
0.0 0.0 0.0 0.0 0.0 0.0 0.0 0.0
0.0 0.0 0.0 0.0 0.0 0.0 0.0 0.0
0.0 0.0 0.0 0.0 0.0 0.0 0.0 0.0
0.0 0.0 0.0 0.0 0.0 0.0 0.0 0.0
0.0 0.0 0.0 0.0 0.0 0.0 0.0 0.0
0.0 0.0 0.0 0.0 0.0 0.0 0.0 0.0
0.0 0.0 0.0 0.0 0.0 0.0 0.0 0.0
0.0 0.0 0.0 0.0 0.0 0.0 0.0 0.0
0.0 0.0 0.0 0.0 0.0 0.0 0.0 0.0
0.0 0.0 0.0 0.0 0.0 0.0 0.0 0.0
0.0 0.0 0.0 0.0 0.0 0.0 0.0 0.0
0.0 0.0 0.0 0.0 0.0 0.0 0.0 0.0
0.0 0.0 0.0 0.0 0.0 0.0 0.0 0.0
0.0 0.0 0.0 0.0 0.0 0.0 0.0 0.0
0.0 0.0 0.0 0.0 0.0 0.0 0.0 0.0
0.0 0.0 0.0 0.0 0.0 0.0 0.0 0.0
0.0 0.0 0.0 0.0 0.0 0.0 0.0 0.0
0.0 0.0 0.0 0.0 0.0 0.0 0.0 0.0
00000000: 0000 0000 0000 0000 0000 0000 0000 0000
00000010: 0000 0000 0000 0000 0000 0000 0000 0000
00000020: 0000 0000 0000 0000 0000 0000 0000 0000
00000030: 0000 0000 0000 0000 0000 0000 0000 0000
00000040: 0000 0000 0000 0000 0000 0000 0000 0000
00000050: 0000 0000 0000 0000 0000 0000 0000 0000
00000060: 0000 0000 0000 0000 0000 0000 0000 0000
00000070: 0000 0000 0000 0000 0000 0000 0000 0000
00000080: 0000 0000 0000 0000 0000 0000 0000 0000
00000090: 0000 0000 0000 0000 0000 0000 0000 0000
000000a0: 0000 0000 0000 0000 0000 0000 0000 0000
000000b0: 0000 0000 0000 0000 0000 0000 0000 0000
000000c0: 0000 0000 0000 0000 0000 0000 0000 0000
000000d0: 0000 0000 0000 0000 0000 0000 0000 0000
000000e0: 0000 0000 0000 0000 0000 0000 0000 0000
000000f0: 0000 0000 0000 0000 0000 0000 0000 0000
00000100: 0000 0000 0000 0000 0000 0000 0000 0000
00000110: 0000 0000 0000 0000 0000 0000 0000 0000
00000120: 0000 0000 0000 0000 0000 0000 0000 0000
00000130: 0000 0000 0000 0000 0000 0000 0000 0000
00000140: 0000 0000 0000 0000 0000 0000 0000 0000
00000150: 0000 0000 0000 0000 0000 0000 0000 0000
00000160: 0000 0000 0000 0000 0000 0000 0000 0000
00000170: 0000 0000 0000 0000 0000 0000 0000 0000
00000180: 0000 0000 0000 0000 0000 0000 0000 0000
00000190: 0000 0000 0000 0000 0000 0000 0000 0000
000001a0: 0000 0000 0000 0000 0000 0000 0000 0000
000001b0: 0000 0000 0000 0000 0000 0000 0000 0000
000001c0: 0000 0000 0000 0000 0000 0000 0000 0000
000001d0: 0000 0000 0000 0000 0000 0000 0000 0000
000001e0: 0000 0000 0000 0000 0000 0000 0000 0000
000001f0: 0000 0000 0000 0000 0000 0000 0000 0000
00000200: 0000 0000 0000 0000 0000 0000 0000 0000
00000210: 0000 0000 0000 0000 0000 0000 0000 0000
00000220: 0000 0000 0000 0000 0000 0000 0000 0000
00000230: 0000 0000 0000 0000 0000 0000 0000 0000
00000240: 0000 0000 0000 0000 0000 0000 0000 0000
00000250: 0000 0000 0000 0000 0000 0000 0000 0000
00000260: 0000 0000 0000 0000 0000 0000 0000 0000
00000270: 0000 0000 0000 0000 0000 0000 0000 0000
00000280: 0000 0000 0000 0000 0000 0000 0000 0000
00000290: 0000 0000 0000 0000 0000 0000 0000 0000
000002a0: 0000 0000 0000 0000 0000 0000 0000 0000
000002b0: 0000 0000 0000 0000 0000 0000 0000 0000
000002c0: 0000 0000 0000 0000 0000 0000 0000 0000
000002d0: 0000 0000 0000 0000 0000 0000 0000 0000
000002e0: 0000 0000 0000 0000 0000 0000 0000 0000
000002f0: 0000 0000 0000 0000 0000 0000 0000 0000
00000300: 0000 0000 0000 0000 0000 0000 0000 0000
00000310: 0000 0000 0000 0000 0000 0000 0000 0000
00000320: 0000 0000 0000 0000 0000 0000 0000 0000
00000330: 0000 0000 0000 0000 0000 0000 0000 0000
00000340: 0000 0000 0000 0000 0000 0000 0000 0000
00000350: 0000 0000 0000 0000 0000 0000 0000 0000
00000360: 0000 0000 0000 0000 0000 0000 0000 0000
00000370: 0000 0000 0000 0000 0000 0000 0000 0000
00000380: 0000 0000 0000 0000 0000 0000 0000 0000
00000390: 0000 0000 0000 0000 0000 0000 0000 0000
000003a0: 0000 0000 0000 0000 0000 0000 0000 0000
000003b0: 0000 0000 0000 0000 0000 0000 0000 0000
000003c0: 0000 0000 0000 0000 0000 0000 0000 0000
000003d0: 0000 0000 0000 0000 0000 0000 0000 0000
000003e0: 0000 0000 0000 0000 0000 0000 0000 0000
000003f0: 0000 0000 0000 0000 0000 0000 0000 0000

TFLITE_COMPATIBLE_CNN/tf_op_layer_BatchMatMulV2_2/BatchMatMulV2_2 f4 [26, 129]
0.0 0.0 0.0 0.836983 0.38301542 0.0 0.0 0.0
0.0 0.0 0.0 0.0 0.0 0.0 0.0 0.0
0.0 0.0 0.0 0.0 0.0 0.0 0.0 0.0
0.0 0.0 0.0 0.0 0.0 0.0 0.0 0.0
0.0 0.0 0.0 0.0 0.0 0.0 0.0 0.0
0.0 0.0 0.0 0.0 0.0 0.0 0.0 0.0
0.0 0.0 0.0 0.0 0.0 0.0 0.0 0.0
0.0 0.0 0.0 0.0 0.0 0.0 0.0 0.0
0.0 0.0 0.0 0.0 0.0 0.0 0.0 0.0
0.0 0.0 0.0 0.0 0.0 0.0 0.0 0.0
0.0 0.0 0.0 0.0 0.0 0.0 0.0 0.0
0.0 0.0 0.0 0.0 0.0 0.0 0.0 0.0
0.0 0.0 0.0 0.0 0.0 0.0 0.0 0.0
0.0 0.0 0.0 0.0 0.0 0.0 0.0 0.0
0.0 0.0 0.0 0.0 0.0 0.0 0.0 0.0
0.0 0.0 0.0 0.0 0.0 0.0 0.0 0.0
0.0 0.0 0.0 0.0 0.0 0.6169846 0.65273184 0.0
0.0 0.0 0.0 0.0 0.0 0.0 0.0 0.0
0.0 0.0 0.0 0.0 0.0 0.0 0.0 0.0
0.0 0.0 0.0 0.0 0.0 0.0 0.0 0.0
0.0 0.0 0.0 0.0 0.0 0.0 0.0 0.0
0.0 0.0 0.0 0.0 0.0 0.0 0.0 0.0
0.0 0.0 0.0 0.0 0.0 0.0 0.0 0.0
0.0 0.0 0.0 0.0 0.0 0.0 0.0 0.0
0.0 0.0 0.0 0.0 0.0 0.0 0.0 0.0
0.0 0.0 0.0 0.0 0.0 0.0 0.0 0.0
0.0 0.0 0.0 0.0 0.0 0.0 0.0 0.0
0.0 0.0 0.0 0.0 0.0 0.0 0.0 0.0
0.0 0.0 0.0 0.0 0.0 0.0 0.0 0.0
0.0 0.0 0.0 0.0 0.0 0.0 0.0 0.0
0.0 0.0 0.0 0.0 0.0 0.0 0.0 0.0
0.0 0.0 0.0 0.0 0.0 0.0 0.0 0.0
00000000: 0000 0000 0000 0000 0000 0000 8544 563f
00000010: 991a c43e 0000 0000 0000 0000 0000 0000
00000020: 0000 0000 0000 0000 0000 0000 0000 0000
00000030: 0000 0000 0000 0000 0000 0000 0000 0000
00000040: 0000 0000 0000 0000 0000 0000 0000 0000
00000050: 0000 0000 0000 0000 0000 0000 0000 0000
00000060: 0000 0000 0000 0000 0000 0000 0000 0000
00000070: 0000 0000 0000 0000 0000 0000 0000 0000
00000080: 0000 0000 0000 0000 0000 0000 0000 0000
00000090: 0000 0000 0000 0000 0000 0000 0000 0000
000000a0: 0000 0000 0000 0000 0000 0000 0000 0000
000000b0: 0000 0000 0000 0000 0000 0000 0000 0000
000000c0: 0000 0000 0000 0000 0000 0000 0000 0000
000000d0: 0000 0000 0000 0000 0000 0000 0000 0000
000000e0: 0000 0000 0000 0000 0000 0000 0000 0000
000000f0: 0000 0000 0000 0000 0000 0000 0000 0000
00000100: 0000 0000 0000 0000 0000 0000 0000 0000
00000110: 0000 0000 0000 0000 0000 0000 0000 0000
00000120: 0000 0000 0000 0000 0000 0000 0000 0000
00000130: 0000 0000 0000 0000 0000 0000 0000 0000
00000140: 0000 0000 0000 0000 0000 0000 0000 0000
00000150: 0000 0000 0000 0000 0000 0000 0000 0000
00000160: 0000 0000 0000 0000 0000 0000 0000 0000
00000170: 0000 0000 0000 0000 0000 0000 0000 0000
00000180: 0000 0000 0000 0000 0000 0000 0000 0000
00000190: 0000 0000 0000 0000 0000 0000 0000 0000
000001a0: 0000 0000 0000 0000 0000 0000 0000 0000
000001b0: 0000 0000 0000 0000 0000 0000 0000 0000
000001c0: 0000 0000 0000 0000 0000 0000 0000 0000
000001d0: 0000 0000 0000 0000 0000 0000 0000 0000
000001e0: 0000 0000 0000 0000 0000 0000 0000 0000
000001f0: 0000 0000 0000 0000 0000 0000 0000 0000
00000200: 0000 0000 0000 0000 0000 0000 0000 0000
00000210: 0000 0000 b4f2 1d3f 6f19 273f 0000 0000
00000220: 0000 0000 0000 0000 0000 0000 0000 0000
00000230: 0000 0000 0000 0000 0000 0000 0000 0000
00000240: 0000 0000 0000 0000 0000 0000 0000 0000
00000250: 0000 0000 0000 0000 0000 0000 0000 0000
00000260: 0000 0000 0000 0000 0000 0000 0000 0000
00000270: 0000 0000 0000 0000 0000 0000 0000 0000
00000280: 0000 0000 0000 0000 0000 0000 0000 0000
00000290: 0000 0000 0000 0000 0000 0000 0000 0000
000002a0: 0000 0000 0000 0000 0000 0000 0000 0000
000002b0: 0000 0000 0000 0000 0000 0000 0000 0000
000002c0: 0000 0000 0000 0000 0000 0000 0000 0000
000002d0: 0000 0000 0000 0000 0000 0000 0000 0000
000002e0: 0000 0000 0000 0000 0000 0000 0000 0000
000002f0: 0000 0000 0000 0000 0000 0000 0000 0000
00000300: 0000 0000 0000 0000 0000 0000 0000 0000
00000310: 0000 0000 0000 0000 0000 0000 0000 0000
00000320: 0000 0000 0000 0000 0000 0000 0000 0000
00000330: 0000 0000 0000 0000 0000 0000 0000 0000
00000340: 0000 0000 0000 0000 0000 0000 0000 0000
00000350: 0000 0000 0000 0000 0000 0000 0000 0000
00000360: 0000 0000 0000 0000 0000 0000 0000 0000
00000370: 0000 0000 0000 0000 0000 0000 0000 0000
00000380: 0000 0000 0000 0000 0000 0000 0000 0000
00000390: 0000 0000 0000 0000 0000 0000 0000 0000
000003a0: 0000 0000 0000 0000 0000 0000 0000 0000
000003b0: 0000 0000 0000 0000 0000 0000 0000 0000
000003c0: 0000 0000 0000 0000 0000 0000 0000 0000
000003d0: 0000 0000 0000 0000 0000 0000 0000 0000
000003e0: 0000 0000 0000 0000 0000 0000 0000 0000
000003f0: 0000 0000 0000 0000 0000 0000 0000 0000

TFLITE_COMPATIBLE_CNN/conv2d/Conv2D f4 [16, 3, 3, 1]
-0.15909721 0.5919137 0.13728793 0.734372 0.34113374 -0.22285983 0.026250623 -0.05473691
-1.0412022 0.59666973 -0.27859807 0.7773758 -0.14752884 0.6525579 -0.5556348 0.684876
0.22113545 0.30584997 -0.5814727 0.39262182 0.7028021 -0.96405095 -1.5508302 -0.7587771
0.15026084 -0.57410294 -0.7121309 -0.15108518 0.18725725 0.28377125 0.054926556 0.20182608
-0.77391076 1.0570717 -0.19281492 0.68199545 0.7718775 0.114327356 -0.26601008 -0.5068475
0.34735444 1.0891135 -0.1315503 -0.1862782 -0.6403919 -0.5293658 0.91888523 -0.24514355
0.24575345 -1.1340861 0.9234379 -0.28248894 0.3664649 0.015592342 -0.108726256 0.06239984
-0.6949251 -0.23214492 -0.110898614 0.46317464 0.49040022 0.9429204 -0.07900425 -0.76673967
-0.09797263 0.29872718 -0.13857345 0.8621169 0.23065504 -0.039906237 -0.6843237 0.2789871
-0.24745116 0.09643404 -0.357577 0.31557375 0.41772673 -0.35252795 -0.70461166 -0.30757076
1.1433991 0.32604575 -0.2855786 -0.4454342 0.25998855 0.19944295 -0.40624562 0.111001976
0.4014647 0.7332144 -0.022104025 -0.07941974 0.4464791 -0.0056344154 -0.30066565 1.0939468
-0.8991557 -0.24571432 0.6930905 0.2669662 -1.1139764 0.28083524 0.47935456 0.17274858
0.10505558 0.3066879 -0.86777574 0.86927223 0.043419346 -0.402121 0.6008729 -0.36196324
-0.14739127 0.15624161 0.58734095 -0.08745841 0.1724215 -0.4309412 -0.70539343 0.6695944
-0.45768574 -0.7049414 0.3319727 0.8391222 -0.05891119 0.9989946 -0.83849967 -0.78927344
-0.019196354 0.073051676 -0.9247613 0.39682084 0.84772915 0.62820905 0.6799187 0.36197427
-0.09513038 -1.0071013 0.80847096 -0.64223963 0.5392953 -0.07956312 0.28810626 0.1828711
00000000: 61ea 22be a887 173f 3595 0c3e ceff 3b3f
00000010: 15a9 ae3e 5e35 64be 8c0b d73c cf33 60bd
00000020: 1d46 85bf 59bf 183f 68a4 8ebe 1a02 473f
00000030: cd11 17be 090e 273f 153e 0ebf 0954 2f3f
00000040: 5571 623e 5e98 9c3e 65db 14bf ba05 c93e
00000050: d7ea 333f 0bcc 76bf 9b81 c6bf 373f 42bf
00000060: fadd 193e 69f8 12bf 364e 36bf 13b6 1abe
00000070: 5dc0 3f3e 774a 913e abfa 603d 7fab 4e3e
00000080: 041f 46bf 204e 873f 4671 45be 4197 2e3f
00000090: c499 453f 7624 ea3d 7932 88be c2c0 01bf
000000a0: 71d8 b13e 1268 8b3f 1fb5 06be b6bf 3ebe
000000b0: b9f0 23bf 8484 07bf 103c 6b3f e906 7bbe
000000c0: cba6 7b3e bc29 91bf 6d66 6c3f 64a2 90be
000000d0: 4aa1 bb3e 0677 7f3c dfab debd fa96 7f3d
000000e0: 9de6 31bf 66b7 6dbe d01e e3bd 3a25 ed3e
000000f0: bd15 fb3e 3b63 713f fbcc a1bd 0d49 44bf
00000100: e0a5 c8bd c5f2 983e 33e6 0dbe b1b3 5c3f
00000110: d630 6c3e b974 23bd d72f 2fbf 66d7 8e3e
00000120: d663 7dbe 367f c53d 5514 b7be e292 a13e
00000130: 47e0 d53e 8b7e b4be 6e61 34bf ea79 9dbe
00000140: e75a 923f 78ef a63e 5c37 92be f40f e4be
00000150: 381d 853e c63a 4c3e 6dff cfbe 0155 e33d
00000160: c88c cd3e f0b3 3b3f 8013 b5bc d1a6 a2bd
00000170: e998 e43e e7a0 b8bb d9f0 99be 7306 8c3f
00000180: 112f 66bf 899c 7bbe 616e 313f cbaf 883e
00000190: c796 8ebf a3c9 8f3e f66d f53e 01e5 303e
000001a0: 6127 d73d 3206 9d3e 8d26 5ebf a088 5e3f
000001b0: 7cd8 313d cee2 cdbe ced2 193f 3f53 b9be
000001c0: bded 16be cdfd 1f3e fa5b 163f 651d b3bd
000001d0: 438f 303e 53a4 dcbe aa94 34bf 8a6a 2b3f
000001e0: c955 eabe 0a77 34bf 53f8 a93e b6d0 563f
000001f0: dc4c 71bd 1cbe 7f3f eaa7 56bf d30d 4abf
00000200: ac41 9dbc 1e9c 953d 28bd 6cbf 1a2c cb3e
00000210: c704 593f 4fd2 203f 270f 2e3f b154 b93e
00000220: b7d3 c2bd b2e8 80bf f4f7 4e3f d169 24bf
00000230: 420f 0a3f fdf1 a2bd aa82 933e 9042 3b3e

TFLITE_COMPATIBLE_CNN/conv2d_1/Conv2D f4 [32, 2, 2, 16]
-0.0066916267 -0.14321567 0.470749 -0.3080708 0.4112502 -0.033724405 -0.17277975 0.02869655
-0.019009622 -0.31454286 0.17036079 0.07333112 -0.35067707 -0.092601195 0.053798847 -0.058325198
0.087496385 0.06900208 0.42623222 0.006518774 0.26460892 0.5295084 0.14679644 0.14712216
-0.3587717 -0.04663228 0.5926259 0.24170582 0.3446639 -0.12438963 0.271485 0.12482675
-0.36251172 -0.23481351 0.31563637 0.15260226 -0.06883062 -0.16205217 0.034593288 0.2385451
-0.54639155 0.083722726 0.023431802 -0.16047473 -0.07029969 0.34442705 0.34462523 -0.19748539
-0.14680324 0.024257185 0.27523363 0.014108414 0.29760018 0.07844011 -0.10846042 0.19801608
-0.6629196 -0.2023006 0.5964833 0.09074794 0.20882514 0.054924168 -0.11813598 -0.5765961
-0.04194866 -0.13672309 -0.3460433 0.22965685 -0.15392682 0.18022312 0.35785812 0.35597992
-0.012008897 -0.13947627 -0.032101993 -0.09132134 0.26946706 0.107944585 0.08030049 0.029639017
0.05195827 -0.41131157 -0.25622872 -0.32851356 -0.024282958 -0.082881674 -0.40292022 -0.16244489
-0.0012450916 -0.3121664 0.071774796 -0.31808603 -0.3608534 -0.13287432 -0.16827998 -0.16238369
-0.08238468 -0.16260388 0.043446902 0.3264312 0.026936136 0.006047184 0.010388353 0.39070153
0.16915555 0.07432979 0.13846785 0.1845181 0.0042685824 -0.033885233 0.22667901 0.45059404
0.2989669 -0.043641996 0.3462947 0.26195058 0.40629303 0.0062022386 -0.028234288 -0.26234025
0.07388125 0.13025986 0.071474336 -0.3203618 -0.4118168 -0.10180842 0.13292162 0.10095152
0.08468592 -0.29356828 0.044399347 0.06177176 0.1048321 -0.16102584 -0.56170726 0.58110285
0.25640208 0.18772025 0.21374917 -0.021066379 -0.105562985 -0.15497808 -0.5385954 -0.06367175
0.28111985 -0.02820309 -0.17608829 -0.02146917 -0.029359007 -0.13552774 -0.8176574 0.12890033
0.26273212 -0.026398616 -0.04760388 0.06636741 0.026115878 -0.36081502 -0.38459706 0.012613558
-0.13538904 0.2422399 -0.168427 0.22727211 -0.4052383 -0.0922284 -0.24788211 -0.13877998
0.067127466 0.085516326 -0.25767508 -0.27710533 0.18930395 0.18852009 -0.06485895 0.27963987
-0.17187227 0.18457465 -0.14333087 0.04758472 -0.063013405 0.035829127 0.14064828 0.0353099
0.028361933 0.27738914 -0.042369585 -0.2395246 -0.21183947 0.20858823 0.06287576 0.1721961
0.003032464 0.42555118 -0.2435427 0.14216687 0.3360185 -0.23347099 0.2624794 0.1741344
-0.9080196 -0.17648557 -0.520839 0.07852376 0.44309512 0.26237434 0.49419138 -0.21872528
0.4231206 0.020025713 0.35654417 -0.062646724 0.102730416 -0.43501553 -0.17323484 -0.00886076
-0.91926926 -0.052576598 -0.13970359 -0.30965972 -0.2111585 -0.08376283 -0.079782024 -0.22202383
-0.015165528 0.09716292 0.43279567 -0.16277915 -0.16366397 -0.21230969 0.0636658 0.04860236
0.04379441 0.14126052 0.30482748 0.09182229 -0.19494748 0.20296544 0.19068657 0.22694214
-0.3071421 -0.21857762 0.14799751 0.17654611 -0.86030394 -0.20681222 0.14177804 -0.5702897
0.16185386 -0.038390193 -0.70908445 0.12830344 -0.1077893 0.21803524 0.007122346 0.14845634
00000000: 6f45 dbbb 21a7 12be 0306 f13e 75bb 9dbe
00000010: 638f d23e 9a22 0abd 2ded 30be 0715 eb3c
00000020: 11ba 9bbc c30b a1be 0f73 2e3e a02e 963d
00000030: f28b b3be b2a5 bdbd 2e5c 5c3d 67e6 6ebd
00000040: 4e31 b33d f650 8d3d 1c3b da3e 719b d53b
00000050: d27a 873e dd8d 073f ce51 163e 31a7 163e
00000060: edb0 b7be 7d01 3fbd 55b6 173f bb81 773e
00000070: c977 b03e febf febd 1500 8b3e 2ba5 ff3d
00000080: 239b b9be f472 70be 179b a13e c443 1c3e
00000090: 11f7 8cbd 01f1 25be b1b1 0d3d 2b45 743e
000000a0: 51e0 0bbf d276 ab3d 0df4 bf3c 7d53 24be
000000b0: 49f9 8fbd be58 b03e b872 b03e 9c39 4abe
000000c0: 9753 16be 01b7 c63c 6ceb 8c3e fa26 673c
000000d0: 0d5f 983e 35a5 a03d 7f20 debd bac4 4a3e
000000e0: 19b5 29bf e327 4fbe 21b3 183f 0eda b93d
000000f0: 42d6 553e 2af8 603d 47f1 f1bd cd9b 13bf
00000100: 5cd2 2bbd 2301 0cbe 962c b1be 2a2b 6b3e
00000110: fe9e 1dbe 698c 383e 2e39 b73e 0043 b63e
00000120: f7c0 44bc ded2 0ebe 617d 03bd af06 bbbd
00000130: 96f7 893e 0d12 dd3d 9574 a43d 86cd f23c
00000140: 32d2 543d 6e97 d2be 6930 83be ee32 a8be
00000150: 0eed c6bc debd a9bd 8f4b cebe f457 26be
00000160: 5732 a3ba 46d4 9fbe aafe 923d 2cdc a2be
00000170: c7c1 b8be 3510 08be 9651 2cbe e947 26be
00000180: 4db9 a8bd a281 26be 61f5 313d fe21 a73e
00000190: 2ca9 dc3c 7527 c63b e933 2a3c 080a c83e
000001a0: 1d37 2d3e 383a 983d 84ca 0d3e 50f2 3c3e
000001b0: 77df 8b3b 3ecb 0abd 8b1e 683e 43b4 e63e
000001c0: 3112 993e f3c1 32bd 8a4d b13e 631e 863e
000001d0: a405 d03e 263c cb3b 984b e7bc 7651 86be
000001e0: 0e4f 973d d762 053e 2361 923d 7606 a4be
000001f0: a7d9 d2be ef80 d0bd 9b1c 083e acbf ce3d
00000200: d06f ad3d 954e 96be 17dc 353d 6304 7d3d
00000210: 36b2 d63d f5e3 24be 0ccc 0fbf 28c3 143f
00000220: 2247 833e bd39 403e 10e1 5a3e 6693 acbc
00000230: 6831 d8bd 93b2 1ebe 63e1 09bf 5666 82bd
00000240: f1ee 8f3e 2b0a e7bc 7d50 34be 1de0 afbc
00000250: 4d82 f0bc c9c7 0abe ff51 51bf 73fe 033e
00000260: d384 863e e941 d8bc 49fc 42bd a3eb 873d
00000270: f7f0 d53c bfbc b8be e8e9 c4be 19a9 4e3c
00000280: 6da3 0abe bd0d 783e 2178 2cbe 05ba 683e
00000290: 657b cfbe 3ee2 bcbd cfd4 7dbe 571c 0ebe
000002a0: 207a 893d 2f23 af3d fded 83be c0e0 8dbe
000002b0: e5d8 413e 690b 413e c5d4 84bd f52c 8f3e
000002c0: 49ff 2fbe 2301 3d3e 54c5 12be 32e8 423d
000002d0: 2c0d 81bd 90c1 123d 1a06 103e 1da1 103d
000002e0: 4957 e83c f305 8e3e bb8b 2dbd f045 75be
000002f0: 72ec 58be 2798 553e 02c5 803d 2d54 303e
00000300: 4ebc 463b d8e1 d93e 4263 79be 3194 113e
00000310: 9e0a ac3e 0513 6fbe b363 863e 4a50 323e
00000320: f973 68bf a2b8 34be b455 05bf 11d1 a03d
00000330: 5ddd e23e ee55 863e a706 fd3e 85f9 5fbe
00000340: 43a3 d83e f70c a43c f58c b63e ed4c 80bd
00000350: 5364 d23d 5bba debe 7964 31be b92c 11bc
00000360: 3b55 6bbf 8f5a 57bd 750e 0fbe b88b 9ebe
00000370: ef39 58be d98b abbd c264 a3bd 375a 63be
00000380: d678 78bc 5afd c63d 6597 dd3e 94af 26be
00000390: 8797 27be b667 59be 3763 823d 4513 473d
000003a0: c461 333d 99a6 103e 5912 9c3e 530d bc3d
000003b0: 50a0 47be 2cd6 4f3e 5743 433e 8563 683e
000003c0: bb41 9dbe d0d2 5fbe a98c 173e 81c8 343e
000003d0: e13c 5cbf 95c6 53be 432e 113e 81fe 11bf
000003e0: 05bd 253e 093f 1dbd 8f86 35bf fa61 033e
000003f0: a3c0 dcbd a144 5f3e 9262 e93b f004 183e
