results/model.tflite (tflite, 555108 bytes, 10 tensors)

unknown_0 f4 [16]
-0.07973469 -0.145874 -0.12662762 0.039627682 -0.028626433 -0.036137976 -0.15694791 -0.00022812121
-0.044765707 -0.042491034 -0.008858438 -0.020875216 0.12219709 0.01909773 -0.02120895 -0.1611872
00000000: f14b a3bd fe5f 15be acaa 01be a350 223d
00000010: fb81 eabc 6a05 14bd f4b6 20be d233 6fb9
00000020: 3f5c 37bd 140b 2ebd fb22 11bc 8002 abbc
00000030: 7842 fa3d d872 9c3c 64be adbc 420e 25be

unknown_2 f4 [32]
-0.078574695 0.022281988 -0.022158448 -0.0012504355 -0.04436395 0.010595015 -0.12987734 -0.05196452
-0.1145608 -0.034901343 -0.10766085 -0.15847147 -0.030327808 -0.026407175 0.021406077 -0.13807899
0.1130681 -0.021397352 -0.02177119 -0.026012853 -0.051030044 -0.009104232 -0.021654416 -0.08756577
0.004661252 -0.009882817 -0.0141532635 -0.034076616 0.040315215 -0.010557371 0.08545079 -0.028820498
00000000: c5eb a0bd b788 b63c a285 b5bc a7e5 a3ba
00000010: f9b6 35bd b796 2d3c 91fe 04be c0d8 54bd
00000020: da9e eabd b6f4 0ebd 4b7d dcbd 5846 22be
00000030: 0672 f8bc dc53 d8bc cc5b af3c 9464 0dbe
00000040: 3f90 e73d 8049 afbc 7f59 b2bc e818 d5bc
00000050: e104 51bd eb29 15bc 9a64 b1bc af55 b3bd
00000060: 6abd 983b 8aeb 21bc 17e3 67bc ec93 0bbd
00000070: 9121 253d d3f8 2cbc d300 af3d f718 ecbc

unknown_4 f4 [64]
-0.00036394992 -0.051686842 0.013718352 0.032503597 -0.0046047373 -0.038132045 -0.037820738 -0.033529688
-0.04250192 -0.10241313 -0.081267565 -0.10145556 -0.023308847 -0.037066437 0.099194564 0.03013209
-0.036573958 -0.031146292 0.027384909 -0.041493613 0.00892419 -0.027661072 -0.011547156 0.038364153
-0.007426185 -0.054205574 -0.046274062 -0.034818675 -0.04694049 -0.025420614 -0.03053961 -0.035728082
-0.05320015 -0.054420948 -0.054860286 -0.009133905 -0.1534652 0.024772413 -0.049727526 0.018955288
-0.08493081 -0.073900074 0.0018592913 -0.10953337 -0.061688263 -0.06551704 -0.022019824 -0.16638274
-0.042990234 -0.0076575056 -0.038796365 -0.1366499 -0.062557064 -0.012880753 -0.041157465 -0.061380558
-0.041262563 -0.012075166 -0.10770169 -0.084161445 -0.074409 -0.07675488 -0.02260599 -0.03727031
00000000: 88d0 beb9 95b5 53bd f0c2 603c 7e22 053d
00000010: 56e3 96bb 5930 1cbd ebe9 1abd 6d56 09bd
00000020: 7e16 2ebd fabd d1bd 9c6f a6bd efc7 cfbd
00000030: 32f2 bebc fad2 17bd 8526 cb3d 93d7 f63c
00000040: 93ce 15bd 8226 ffbc 5156 e03c 35f5 29bd
00000050: c436 123c 7999 e2bc 4830 3dbc bb23 1d3d
00000060: 5b57 f3bb aa06 5ebd df89 3dbd 079e 0ebd
00000070: ac44 40bd e43e d0bc 342e fabc 9c57 12bd
00000080: 67e8 59bd 80e8 5ebd 2eb5 60bd 60a6 15bc
00000090: fb25 1dbe 84ef ca3c 17af 4bbd 1f48 9b3c
000000a0: 34f0 adbd ec58 97bd 77b3 f33a 0853 e0bd
000000b0: d5ac 7cbd cc2d 86bd eb62 b4bc 3d60 2abe
000000c0: 8716 30bd d0eb fabb f0e8 1ebd f4ed 0bbe
000000d0: eb1d 80bd cb09 53bc bb94 28bd 2e6a 7bbd
000000e0: ef02 29bd ebd6 45bc b492 dcbd d65c acbd
000000f0: bf63 98bd aa31 9dbd 3230 b9bc c1a8 18bd

unknown_6 f4 [128]
-0.020811686 -0.0907411 -0.0040503135 -0.011310247 0.050702427 -0.03632996 -0.055021077 -0.11802547
-0.061360575 0.0061847297 -0.11440575 0.13473177 -0.02430408 0.016499521 -0.040277246 0.15252015
0.056744337 0.03600248 -0.051904608 0.06648791 0.030257158 -0.058340028 0.1964871 0.030225793
0.08305085 0.14757389 -0.020889048 0.04513933 0.021730574 -0.023734227 0.001464431 0.13310239
0.015636625 -0.06731415 -0.023899958 -0.06592375 0.03297765 -0.0055512423 0.17825899 0.10338235
-0.0620776 -0.047694437 -0.04404745 0.2493609 0.14707108 -0.017775279 0.028578129 0.10100351
-0.022407126 0.08452444 0.020027155 -0.038595155 -0.10698293 0.021529378 0.22619438 -0.070096135
-0.053366024 -0.04001922 -0.027384719 0.15283224 -0.015396736 -0.035791993 -0.010097394 0.22315969
0.13333069 -0.01091801 -0.020326618 -0.070261575 0.010170466 0.09598565 0.2249267 -0.05259166
-0.080549836 0.028330363 -0.0021334407 -0.02903041 -0.062607 0.17135768 -0.047456205 0.24497032
-0.15942058 -0.039558593 0.119050495 -0.014194624 -0.06863438 -0.069402814 0.16294874 0.08505692
0.034268785 0.09287264 -0.09342991 -0.05155192 0.06905232 0.12522878 0.1341824 0.22454931
0.09192022 -0.084580705 -0.0019706574 -0.036152877 0.21782908 0.059225 0.18427297 0.0758562
-0.13637358 0.21755028 0.04612964 0.03026809 -0.0606546 0.28505903 -0.15540452 -0.042887703
-0.08112033 -0.018666243 0.037823565 0.09947398 -0.04861666 0.018925436 -0.004831107 -0.03296929
-0.009247936 0.24141641 0.110234514 0.02522544 -0.07600309 0.17527944 0.14454716 -0.10391718
00000000: 457d aabc 78d6 b9bd 7eb8 84bb 9d4e 39bc
00000010: 59ad 4f3d b9ce 14bd c85d 61bd 56b7 f1bd
00000020: 3a55 7bbd 46a9 ca3b 904d eabd 20f7 093e
00000030: 5a19 c7bc 012a 873c c1f9 24bd 3e2e 1c3e
00000040: c06c 683d 5677 133d ed99 54bd d02a 883d
00000050: dcdd f73c f4f5 6ebd ea33 493e 159c f73c
00000060: 9016 aa3d 9c1d 173e 821f abbc 05e4 383d
00000070: 5104 b23c 486e c2bc 27f2 bf3a fe4b 083e
00000080: 6118 803c 00dc 89bd d8c9 c3bc 0803 87bd
00000090: 9313 073d 32e7 b5bb 8689 363e 20ba d33d
000000a0: 1545 7ebd 3e5b 43bd 196b 34bd 7758 7f3e
000000b0: cd99 163e 769d 91bc ae1c ea3c eeda ce3d
000000c0: 268f b7bc 261b ad3d fd0f a43c f415 1ebd
000000d0: de19 dbbd 615e b03c 809f 673e 908e 8fbd
000000e0: 5596 5abd 32eb 23bd eb55 e0bc 0e80 1c3e
000000f0: 9742 7cbc a09a 12bd 8a6f 25bc f983 643e
00000100: d787 083e 74e1 32bc 0284 a6bc 4de5 8fbd
00000110: 07a2 263c 2094 c43d 2f53 663e 5a6a 57bd
00000120: 50f7 a4bd 1415 e83c 32d1 0bbb 2fd1 edbc
00000130: 1938 80bd 6378 2f3e 7061 42bd 80d9 7a3e
00000140: 263f 23be 3108 22bd bfd0 f33d 9190 68bc
00000150: 2f90 8cbd 1023 8ebd 09dc 263e 5332 ae3d
00000160: 6d5d 0c3d 0334 be3d 2e58 bfbd 1b28 53bd
00000170: 4e6b 8d3d f93b 003e 1c67 093e 41f0 653e
00000180: ab40 bc3d a638 adbd 2526 01bb 0a15 14bd
00000190: 960e 5f3e ea95 723d 0eb2 3c3e 7f5a 9b3d
000001a0: 84a5 0bbe 80c5 5e3e 6ff2 3c3d c9f4 f73c
000001b0: f570 78bd 42f3 913e 5d22 1fbe 04ab 2fbd
000001c0: 6a22 a6bd f3e9 98bc e2ec 1a3d 04b9 cb3d
000001d0: 4322 47bd 8409 9b3c 434e 9ebb ce0a 07bd
000001e0: a884 17bc dd35 773e a2c2 e13d 95a5 ce3c
000001f0: 82a7 9bbd 747c 333e 2c04 143e 88d2 d4bd

unknown_8 f4 [12]
0.33419284 0.2823042 -0.3140681 -0.060444266 0.0012485591 -0.30170548 -0.17006262 -0.21720418
-0.40232366 -0.0002651037 0.17922494 -0.043745328
00000000: 531b ab3e 2d8a 903e 89cd a0be 6894 77bd
00000010: b1a6 a33a 2479 9abe e524 2ebe c66a 5ebe
00000020: 5efd cdbe 9efd 8ab9 be86 373e 4d2e 33bd

sequential/dense/MatMul;StatefulPartitionedCall/sequential/dense/MatMul f4 [128, 960]
0.032031212 -0.067378 -0.03956893 -0.013048403 -0.042357832 -0.06448845 -0.010589171 -0.030694209
-0.026491446 -0.10586167 0.024830218 0.013543001 -0.020016383 0.012347415 -0.09663133 0.042832978
-0.1121 0.02509412 0.0008270264 0.064421505 0.036422845 -0.061860844 -0.055469416 -0.08551604
0.006828695 -0.01212201 -0.024052609 -0.042077884 0.039544396 0.062469035 0.0797817 -0.008998781
0.051353756 -0.033078182 -0.009724047 -0.00992992 0.01152355 -0.08255653 -0.050220042 -0.053053517
-0.053430192 0.025450692 0.0369763 -0.045447484 -0.035127882 -0.0455528 0.016664032 0.03608711
-0.02760321 -0.09682917 0.022980101 0.021606088 0.047669813 0.021439727 0.014416373 -0.026676675
0.06612198 0.035384435 -0.0024385236 -0.03847762 -0.025046308 -0.004050397 0.07347143 0.0707082
0.04463508 -0.06656113 0.004445534 -0.06928321 -0.015842758 0.013411086 -0.014653617 0.07383263
-0.02583025 -0.12733182 0.030048613 -0.020321442 -0.09172833 -0.06189301 -0.078502186 -0.051495247
-0.014115999 0.0482694 -0.0164594 -0.011489995 -0.032718528 0.05066534 -0.13703191 -0.098452665
-0.020254321 0.05271031 0.065081544 -0.0112394905 -0.05047356 0.06338242 -0.09343119 0.045820132
0.031115241 0.060301587 -0.02968601 -0.04417243 -0.021359736 0.057616636 0.018473223 0.02090271
-0.023160908 0.02946104 -0.04702394 -0.044129092 -0.07815019 -0.011567326 0.014996218 -0.042569604
-0.021886954 -0.06501409 -0.0672582 -0.03731039 0.05106064 -0.10103961 -0.020589776 0.018263688
0.038676947 0.047161717 -0.052590866 0.051330134 -0.061759755 0.035790328 -0.10597653 -0.03232934
0.05354108 -0.038622897 0.012295519 0.0026812216 -0.07492797 0.037210718 0.00014665663 0.048797086
0.021539321 -0.011529141 -0.031065257 0.01642553 -0.06379891 -0.034073208 0.020596592 -0.06960779
0.040668935 -0.06325284 0.036496747 -0.023711413 -0.016183762 0.009780094 0.02866106 -0.0816566
-0.069800384 0.018643634 0.053301785 -0.08181825 -0.047798812 0.030212447 -0.022800608 -0.06649772
-0.07296917 0.07067394 -0.04865311 -0.0029457211 0.017555194 0.0002231461 -0.043722995 0.04600431
0.0017870477 -0.05724397 0.026603 -0.064718544 0.059701234 0.026432764 0.0639485 -0.03498581
-0.079050064 0.0011742916 0.025630089 0.010232457 -0.075386256 0.0052543255 -0.07844458 -0.09866577
0.06265649 0.024671106 -0.013032337 -0.057971153 -0.055290956 -0.011642829 -0.03367513 -0.036284596
-0.043160234 -0.045656115 -0.024385978 0.016336517 -0.06450549 -0.040919933 0.005610746 -0.02970045
-0.023412697 -0.013938091 -0.06876184 -0.04254382 -0.021573858 0.015887953 -0.053494982 0.060903255
-0.06803234 0.0076344484 -0.062161185 0.036090232 -0.070596434 -0.023773016 0.0049607167 -0.016619917
-0.038297743 -0.020398185 -0.000406137 -0.09154631 0.030083165 0.028635003 0.0012992464 0.006920226
0.029976288 0.01532796 0.041996274 0.0020905496 0.016655345 0.055379663 -0.080558755 0.02931551
-0.07881826 -0.07960027 0.040732317 -0.058075745 0.045890182 -0.069592856 -0.035396144 0.04864392
0.016499555 -0.092441134 -0.045307375 -0.056906763 -0.07422282 -0.026392847 -0.04005575 0.009080482
0.0015633032 -0.08449951 0.040418435 -0.0035002828 0.01637804 -0.09474354 0.019653885 -0.046544045
00000000: 2933 033d 7afd 89bd 0813 22bd f8c8 55bc
00000010: 687f 2dbd 8512 84bd 347e 2dbc 6c72 fbbc
00000020: 9704 d9bc 01ce d8bd be68 cb3c 77e3 5d3c
00000030: 66f9 a3bc d04c 4a3c a6e6 c5bd a271 2f3d
00000040: af94 e5bd 2f92 cd3c cdcc 583a 6cef 833d
00000050: 1f30 153d cc61 7dbd e633 63bd 0923 afbd
00000060: 3fc3 df3b 659b 46bc fa09 c5bc dc59 2cbd
00000070: 4ef9 213d 88df 7f3d 9764 a33d a06f 13bc
00000080: 5158 523d fd7c 07bd 9c51 1fbc 1ab1 22bc
00000090: 46cd 3c3c 6613 a9bd 88b3 4dbd a54e 59bd
000000a0: 9ed9 5abd f87d d03c 7674 173d 2427 3abd
000000b0: 41e2 0fbd 9395 3abd 0283 883c 14d0 133d
000000c0: 2120 e2bc 5f4e c6bd c440 bc3c 40ff b03c
000000d0: 6c41 433d 5ea2 af3c a732 6c3c 0b89 dabc
000000e0: f66a 873d 45ef 103d a3cf 1fbb b59a 1dbd
000000f0: ea2d cdbc 31b9 84bb 3078 963d 76cf 903d
00000100: 46d3 363d 3451 88bd d8ab 913b 5be4 8dbd
00000110: acc8 81bc 2cba 5b3c b915 70bc 9035 973d
00000120: f699 d3bc 4663 02be 8228 f63c 2779 a6bc
00000130: 10dc bbbd 8683 7dbd c1c5 a0bd aeec 52bd
00000140: cb46 67bc 22b6 453d ddd5 86bc 8840 3cbc
00000150: dd03 06bd 7686 4f3d 1852 0cbe 8da1 c9bd
00000160: 64ec a5bc c4e6 573d 7949 853d d725 38bc
00000170: 5dbd 4ebd a4ce 813d da58 bfbd e4ad 3b3d
00000180: 64e5 fe3c ccfe 763d 1330 f3bc 26ee 34bd
00000190: 9dfa aebc 6cff 6b3d 2855 973c 293c ab3c
000001a0: f2bb bdbc 4758 f13c 2d9c 40bd b5c0 34bd
000001b0: 350d a0bd e284 3dbc b2b2 753c 775d 2ebd
000001c0: 454c b3bc 1b26 85bd abbe 89bd c8d2 18bd
000001d0: f624 513d dbed cebd e4ab a8bc bb9d 953c
000001e0: b86b 1e3d a52c 413d 8569 57bd 8c3f 523d
000001f0: ccf7 7cbd e198 123d 390a d9bd c56b 04bd
00000200: e44d 5b3d 0b33 1ebd 2573 493c 6fb7 2f3b
00000210: d673 99bd 446a 183d d7c7 1939 74df 473d
00000220: 3b73 b03c b9e4 3cbc 917c febc d58e 863c
00000230: 01a9 82bd 5990 0bbd 2fba a83c 878e 8ebd
00000240: 7894 263d b48a 81bd 9d7d 153d 703e c2bc
00000250: cf93 84bc b03c 203c 99ca ea3c 933b a7bd
00000260: 81f3 8ebd 89ba 983c f952 5a3d 5490 a7bd
00000270: b0c8 43bd 1880 f73c 57c8 babc f52f 88bd
00000280: dc70 95bd 80bd 903d 7c48 47bd 000d 41bb
00000290: e9cf 8f3c 53fc 6939 e216 33bd 046f 3c3d
000002a0: 5f3b ea3a a778 6abd 89ee d93c 288b 84bd
000002b0: 4889 743d 8689 d83c 6ef7 823d 484d 0fbd
000002c0: 00e5 a1bd b0ea 993a 31f6 d13c 09a6 273c
000002d0: 1c64 9abd 7a2c ac3b 8da7 a0bd 4711 cabd
000002e0: 0c52 803d 0f1b ca3c 9585 55bc 2973 6dbd
000002f0: c578 62bd 90c1 3ebc efee 09bd 289f 14bd
00000300: c9c8 30bd e801 3bbd 1ac5 c7bc 29d4 853c
00000310: 741b 84bd a99b 27bd 59da b73b 5c4e f3bc
00000320: fccb bfbc 975c 64bc 02d3 8cbd 6e42 2ebd
00000330: a9bb b0bc 7427 823c 8e1d 5bbd b175 793d
00000340: 8a54 8bbd 652a fa3b ba9c 7ebd 5ad3 133d
00000350: dd94 90bd a1bf c2bc 828d a23b 7e26 88bc
00000360: 18de 1cbd 181a a7bc c9ee d4b9 a27c bbbd
00000370: f870 f63c f493 ea3c 7a4b aa3a 10c3 e23b
00000380: d590 f53c 2022 7b3c 4904 2c3d 9a01 093b
00000390: ca70 883c c9d5 623d fdfb a4bd 1527 f03c
000003a0: 786b a1bd 7705 a3bd eed6 263d d5e0 6dbd
000003b0: 58f7 3b3d b386 8ebd 8cfb 10bd d93e 473d
000003c0: 132a 873c c751 bdbd 3a94 39bd 1117 69bd
000003d0: 2202 98bd d035 d8bc 8011 24bd 4dc6 143c
000003e0: c0e7 cc3a 140e adbd cd8d 253d 0065 65bb
000003f0: 3d2b 863c e708 c2bd 2f01 a13c f8a4 3ebd

sequential/dense_1/MatMul;StatefulPartitionedCall/sequential/dense_1/MatMul f4 [12, 128]
-0.09263093 -0.008271853 0.1620974 -0.42106223 0.22565944 -0.12021754 0.022418424 0.13357618
-0.33994675 0.10388441 0.12538166 0.004129742 -0.18631609 0.10608296 -0.47571674 0.015203643
-0.26109287 -0.022818003 -0.15254407 0.22403069 -0.19963498 -0.24375881 0.4115003 -0.2928085
0.01863385 0.09701764 -0.41075116 0.090494834 -0.058191616 -0.16491292 0.046650715 0.15542002
-0.33581275 0.15357041 -0.13588698 -0.029492635 -0.013697632 -0.09224489 0.42819396 0.13609079
-0.16445783 -0.018933462 -0.031240443 0.3025851 0.38823515 -0.15630405 0.21062937 -0.007868798
0.008610524 0.13642782 0.14971617 -0.21639757 -0.04010251 -0.22273016 -0.01131356 0.10516384
-0.31784797 0.02999011 -0.03209569 0.1728366 -0.18166886 -0.09312811 0.11661844 0.10483099
0.10970735 0.14324826 -0.16510572 -0.014930543 -0.16973269 0.19702137 0.22917157 -0.14572325
-0.25047976 0.09587346 0.05096445 -0.054134242 -0.33350277 0.15663876 -0.20434278 0.1932164
0.11987302 0.10597792 0.26225632 0.092735335 -0.38109556 -0.059355512 0.2232267 0.048228964
-0.29396036 0.07510493 -0.008486345 -0.065407455 0.069398865 0.15438932 0.105541155 0.12419239
-0.19920914 0.41747522 -0.15766475 0.100292034 0.25422078 0.24565026 0.016177882 0.12119015
-0.07123419 0.18085885 0.14365107 0.09790758 -0.0020073038 0.088866554 -0.10468827 -0.28043565
0.10982105 -0.10412617 0.26165023 0.10824411 -0.08840497 -0.07072792 -0.2506199 -0.047749206
-0.31373316 0.062230077 0.12757805 0.042202767 0.09105432 0.10037162 0.07706008 -0.44644955
-0.113812365 -0.32160386 -0.5096597 -0.2750981 -0.3084442 -0.1362728 -0.36938554 -1.1178484
-0.4854631 -0.470854 -0.16994607 0.32075042 -0.09556054 -0.67792255 -0.6612204 0.16908209
-0.26668337 -0.2531874 -0.41891053 -0.35704142 -0.18915421 -0.36474848 0.36982855 -0.07490846
-0.3300722 0.21966717 -1.3076417 -0.12308971 -0.29814172 0.17980392 -0.44866276 0.0070701675
0.10024824 -0.7455869 0.16035599 -0.049368892 -0.10697962 0.14355047 0.26293632 0.05545851
-0.14169888 0.10481061 0.1356594 0.22905412 0.19701223 -0.040581524 -0.14275278 -0.8064941
-1.1941032 -0.8052041 -0.52046126 -0.30033204 0.092010304 -1.0492555 0.27643058 0.14107957
-0.45800385 -0.22160977 -0.113192394 0.02127075 -0.18878736 -0.9451367 -0.07434491 0.17677669
-0.109949015 -0.25207555 -0.15336667 -0.44292182 -0.98332226 0.18910694 0.47819304 -0.0897119
-0.5632553 -0.08294899 -0.80422676 -0.06808611 -0.3645325 0.34030196 0.012313062 0.3632598
-0.35098904 -0.10091664 0.02933384 -0.33827624 0.0420662 -0.33173427 -0.06975008 0.28554028
0.035833053 -0.1258782 -1.6363956 -0.17170408 -0.3080602 -2.3561093e-05 0.389951 0.35340914
-0.54693854 -0.2627547 -0.47048873 -0.34805173 0.41323036 0.048042554 0.17879768 -0.60469025
-0.16467671 0.14691216 0.048525307 -0.6849026 -0.16662465 0.17288913 -0.54652053 -0.053189192
-0.2959542 0.0026417244 -0.41683763 0.18163496 -0.08822304 -0.8407141 -0.07625473 -0.503537
-0.050515313 0.30770567 -0.22075205 -0.2506489 -0.2670458 0.2630056 0.56281143 -0.40751627
00000000: 49b5 bdbd ab86 07bc dcfc 253e 7895 d7be
00000010: 4513 673e 9d34 f6bd d8a6 b73c 32c8 083e
00000020: 800d aebe 59c1 d43d 0d64 003e c952 873b
00000030: a5c9 3ebe 0642 d93d 2591 f3be b318 793c
00000040: f7ad 85be d2ec babc 8334 1cbe 4d68 653e
00000050: 1d6d 4cbe e99b 79be 2bb0 d23e ffea 95be
00000060: 04a6 983c 2fb1 c63d fa4d d2be 5b55 b93d
00000070: 555a 6ebd efde 28be d214 3f3d 6d26 1f3e
00000080: a6ef abbe 9041 1d3e f525 0bbe 8a9a f1bc
00000090: 086c 60bc e4ea bcbd 3d3c db3e 625b 0b3e
000000a0: a267 28be 591a 9bbc f5eb ffbc 6fec 9a3e
000000b0: c2c6 c63e 2b0e 20be 3aaf 573e 22ec 00bc
000000c0: 2813 0d3c bcb3 0b3e 324f 193e 5397 5dbe
000000d0: 8842 24bd 6013 64be 835c 39bc 2460 d73d
000000e0: f8bc a2be d2ad f53c c576 03bd 14fc 303e
000000f0: 6707 3abe f3b9 bebd a6d5 ee3d a1b1 d63d
00000100: 3fae e03d acaf 123e 7911 29be 3c9f 74bc
00000110: 68ce 2dbe f8bf 493e f4ab 6a3e 7a38 15be
00000120: e23e 80be 4e59 c43d 19c0 503d debb 5dbd
00000130: e0c0 aabe e965 203e 3c3f 51be 85da 453e
00000140: fc7f f53d f40a d93d 7646 863e 06ec bd3d
00000150: f51e c3be c41e 73bd 8a95 643e bc8b 453d
00000160: f981 96be 9dd0 993d 500a 0bbc 58f4 85bd
00000170: fe20 8e3d 3c18 1e3e f625 d83d 9458 fe3d
00000180: 7bfd 4bbe 50bf d53e de72 21be e965 cd3d
00000190: 3a29 823e be8b 7b3e 7a87 843c 8b32 f83d
000001a0: 3be3 91bd 1033 393e 4419 133e c583 c83d
000001b0: f88c 03bb abff b53d ce66 d6bd 4395 8fbe
000001c0: dce9 e03d 1a40 d5bd 05f7 853e 17af dd3d
000001d0: aa0d b5bd cdd9 90bd 4051 80be ac94 43bd
000001e0: a2a1 a0be f7e4 7e3d d2a3 023e cfdc 2c3d
000001f0: b07a ba3d a38f cd3d add1 9d3d 0995 e4be
00000200: 7516 e9bd 43a9 a4be 0f79 02bf a8d9 8cbe
00000210: 66ec 9dbe 198b 0bbe 1a20 bdbe a815 8fbf
00000220: 9f8e f8be c713 f1be 5806 2ebe 6639 a43e
00000230: 3fb5 c3bd 558c 2dbf bd45 29bf db23 2d3e
00000240: b98a 88be c7a1 81be 717b d6be 22ce b6be
00000250: a4b1 41be 50c0 babe 2b5a bd3e 9b69 99bd
00000260: 39ff a8be 6ef0 603e ce60 a7bf 7516 fcbd
00000270: 08a6 98be 851e 383e 20b7 e5be ddac e73b
00000280: f34e cd3d c8de 3ebf 5c34 243e 0937 4abd
00000290: 2218 dbbd e5fe 123e 979f 863e 7628 633d
000002a0: 8319 11be f2a6 d63d 4cea 0a3e 2a8d 6a3e
000002b0: 93bd 493e d038 26bd c92d 12be 6676 4ebf
000002c0: 60d8 98bf db21 4ebf f33c 05bf 1fc5 99be
000002d0: e66f bc3d 014e 86bf 4f88 8d3e 2a77 103e
000002e0: 7b7f eabe aced 62be 6ad1 e7bd ff3f ae3c
000002f0: 7951 41be 7bf4 71bf 2542 98bd f304 353e
00000300: f32c e1bd 0c10 81be 270c 1dbe a6c6 e2be
00000310: 02bb 7bbf 40a5 413e b8d5 f43e dfba b7bd
00000320: 8031 10bf 29e1 a9bd cee1 4dbf bb70 8bbd
00000330: 01a4 babe 0f3c ae3e babc 493c 30fd b93e
00000340: d6b4 b3be 62ad cebd 854d f03c 8b32 adbe
00000350: 9c4d 2c3d 13d9 a9be 21d9 8ebd 5632 923e
00000360: aec5 123d 37e6 00be 6975 d1bf 32d3 2fbe
00000370: 11ba 9dbe 10a5 c5b7 a8a7 c73e 0bf2 b43e
00000380: 2a04 0cbf c987 86be e6e3 f0be d633 b2be
00000390: ee92 d33e 45c8 443d bd16 373e fbcc 1abf
000003a0: 03a1 28be 2470 163e 79c2 463d c755 2fbf
000003b0: a79f 2abe d909 313e c5e8 0bbf e9dc 59bd
000003c0: 4f87 97be c820 2d3b be6b d5be 84fe 393e
000003d0: 48ae b4bd 0a39 57bf 712b 9cbd cde7 00bf
000003e0: 25e9 4ebd 998b 9d3e d30c 62be 0d55 80be
000003f0: 3aba 88be aca8 863e 6914 103f f9a5 d0be

sequential/conv2d/Conv2D;StatefulPartitionedCall/sequential/conv2d/Conv2D f4 [16, 4, 4, 1]
0.31214774 0.005293398 0.22454722 -0.068479255 0.2798772 -0.048048854 0.25651616 0.07534395
-0.03529701 -0.18635505 0.1760127 0.047417764 -0.14377543 -0.19945255 -0.07781664 -0.18392414
-0.22625929 0.087442696 0.05774102 0.17685017 0.008890822 0.037134763 0.016445102 -0.15447952
0.3600647 0.20225573 0.013255077 -0.086393856 0.21766433 -0.13272995 -0.104342334 -0.017435057
-0.25531292 -0.1526244 0.19437997 -0.07262598 -0.101695426 -0.005143795 0.10675712 0.056776326
0.20616868 0.04169416 -0.17853197 -0.11503736 0.66609627 0.33262303 -0.08816693 0.14104934
0.30596328 0.19962405 -0.09019766 -0.11527876 0.3842883 -0.12530325 -0.21018603 -0.12879169
-0.013056414 -0.11880976 0.053846225 -0.14404087 -0.2284712 0.039495427 0.18997307 0.18348621
-0.004521918 -0.19834587 -0.04839624 -0.06321164 -0.05666684 0.33820105 0.21522883 0.12173977
-0.13703762 0.10796089 0.09364602 -0.0786262 -0.2745961 -0.12403236 0.04688503 0.20628189
-0.07055677 0.016177023 0.016064163 -0.052816343 0.19784862 0.10463226 -0.27401835 -0.1916155
-0.082050174 0.20735419 -0.1489677 -0.032083064 -0.3548181 0.22361343 0.4239181 0.24024878
0.19456895 0.14837557 -0.027126132 -0.14916718 0.3592636 0.16700448 -0.0022404862 -0.17913078
0.18929867 -0.012804271 -0.030259667 0.07507642 -0.2848102 -0.092490725 0.106983885 -0.03146686
-0.20028348 0.013684543 0.24628642 0.19784877 -0.14555603 0.17008746 0.26552704 0.1840021
-0.15202506 0.16745734 -0.11650185 -0.10936058 -0.13961527 -0.020676969 -0.009696798 -0.13678269
-0.16848291 -0.12425834 -0.05781131 -0.025011431 0.071842216 0.035776626 0.08201087 -0.14681844
0.32548323 0.15937586 -0.24127027 -0.13531615 0.23244508 0.06788966 0.09185779 0.12680072
-0.059644092 0.06211214 0.044781025 -0.013930136 0.074959114 -0.10320604 0.10129452 -0.101856455
0.346967 -0.2515161 -0.18642831 0.024449192 0.22923294 0.13950254 -0.08357607 -0.034898296
-0.1834504 -0.24470538 -0.14390537 0.07523046 -0.028407464 -0.13569641 -0.1426465 -0.029238867
2.438694e-05 0.25048366 0.08832361 -0.01530825 0.026980089 0.34461388 0.30624956 0.20603064
-0.03384613 0.18512434 -0.14477076 -0.01651512 0.32418704 -0.004240077 -0.18549763 -0.15849423
0.16257554 -0.12973316 -0.06693562 -0.061536454 0.0686775 -0.05896302 0.24344811 0.022900902
0.0642925 -0.10753769 -0.17033504 0.17064157 -0.12627305 -0.077408895 0.013655948 0.013804698
-0.19484138 -0.002990147 0.16763435 0.13671398 -0.16433212 -0.1666563 0.079572245 0.23090662
-0.07979492 -0.15302181 0.031982027 0.0879912 0.143806 -0.11788587 -0.08801413 0.06328829
-0.0341883 -0.094752654 0.00023511986 0.088066414 -0.106884405 0.08278059 -0.120675035 -0.10018124
-0.12669373 -0.01760368 -0.10801955 -0.11732255 -0.07361567 -0.16092062 -0.07735344 0.010645587
-0.02829369 -0.1668512 0.108893715 0.033138886 0.04059327 0.07091196 -0.07227601 -0.13007414
-0.10063282 -0.05775272 0.06439588 0.058853105 0.047305904 -0.05439459 0.123336665 0.15051201
-0.018329803 0.20161147 -0.0014955393 0.072691105 -0.2648968 -0.015578436 0.073078886 0.084652245
00000000: d4d1 9f3e 3e74 ad3b b5ef 653e da3e 8cbd
00000010: 104c 8f3e e0ce 44bd 1656 833e ee4d 9a3d
00000020: 9993 10bd dcd3 3ebe ac3c 343e 2139 423d
00000030: de39 13be 4a3d 4cbe 555e 9fbd 9c56 3cbe
00000040: 84b0 67be 2815 b33d d981 6c3d 3618 353e
00000050: cfaa 113c 9f1a 183d e1b7 863c e12f 1ebe
00000060: 665a b83e 201c 4f3e d32b 593c 43ef b0bd
00000070: 66e3 5e3e 5cea 07be 6fb1 d5bd f7d3 8ebc
00000080: 60b8 82be 9249 1cbe 8b0b 473e eebc 94bd
00000090: b145 d0bd 488d a8bb 7aa3 da3d 4b8e 683d
000000a0: e21d 533e 7fc7 2a3d 16d1 36be b598 ebbd
000000b0: 4985 2a3f 914d aa3e dd90 b4bd 3d6f 103e
000000c0: 38a7 9c3e 3f6a 4c3e 8db9 b8bd 4517 ecbd
000000d0: 70c1 c43e 7f4f 00be 023b 57be f8e1 03be
000000e0: 92ea 55bc 8852 f3bd dc8d 5c3d 737f 13be
000000f0: 5bf4 69be f5c5 213d 4d88 423e cfe3 3b3e
00000100: 992c 94bb 2e1b 4bbe 233b 46bd 1b75 81bd
00000110: 7d1b 68bd b028 ad3e f264 5c3e b352 f93d
00000120: 9753 0cbe 991a dd3d 7cc9 bf3d c606 a1bd
00000130: dc97 8cbe ae04 febd 840a 403d 8f3b 533e
00000140: 1180 90bd ad85 843c fe98 833c f355 58bd
00000150: d498 4a3e 7049 d63d 224c 8cbe db36 44be
00000160: ec09 a8bd a854 543e fd8a 18be 8869 03bd
00000170: b8aa b5be ebfa 643e cb0b d93e c703 763e
00000180: 153d 473e c4ef 173e 9f37 debc 48bf 18be
00000190: 66f1 b73e 3903 2b3e 1fd5 12bb 0f6e 37be
000001a0: 83d7 413e 01c9 51bc 1fe3 f7bc abc1 993d
000001b0: a4d2 91be c76b bdbd 5e1a db3d 65e3 00bd
000001c0: 1d17 4dbe 2235 603c 8232 7c3e de98 4a3e
000001d0: a40c 15be 682b 2e3e 29f3 873e 0c6b 3c3e
000001e0: 75ac 1bbe f079 2b3e 8698 eebd 71f8 dfbd
000001f0: 4ef7 0ebe bf62 a9bc 52df 1ebc c310 0cbe
00000200: c986 2cbe 287b febd 8dcb 6cbd c6e4 ccbc
00000210: 0322 933d 838a 123d 51f5 a73d 9357 16be
00000220: bda5 a63e 6d33 233e 8e0f 77be 5190 0abe
00000230: 1506 6e3e bc09 8b3d f01f bc3d 0cd8 013e
00000240: 5d4d 74bd 4d69 7e3d 4f6c 373d 3a3b 64bc
00000250: 2a84 993d b05d d3bd 8073 cf3d 1e9a d0bd
00000260: a9a5 b13e b8c6 80be 10e7 3ebe ac49 c83c
00000270: 0abc 6a3e c1d9 0e3e ee29 abbd 84f1 0ebd
00000280: 6cda 3bbe 0c94 7abe ee5b 13be 6d12 9a3d
00000290: c5b6 e8bc 00f4 0abe ed11 12be 5986 efbc
000002a0: 8e92 cc37 653f 803e 02e3 b43d 74cf 7abc
000002b0: 5905 dd3c 3b71 b03e becc 9c3e b2f9 523e
000002c0: 3da2 0abd 3c91 3d3e c93e 14be b84a 87bc
000002d0: d8fb a53e 58f0 8abb 17f3 3dbe 504c 22be
000002e0: 347a 263e c5d8 04be 8b15 89bd a60d 7cbd
000002f0: caa6 8c3d 3583 71bd 764a 793e ac9a bb3c
00000300: c9ab 833d b83c dcbd 4f6c 2ebe aabc 2e3e
00000310: b94d 01be 8e88 9ebd 33bd 5f3c 1a2d 623c
00000320: 8084 47be 58f6 43bb 57a8 2b3e c0fe 0b3e
00000330: ae46 28be f3a7 2abe c6f6 a23d c972 6c3e
00000340: 856b a3bd c0b1 1cbe 96ff 023d bb34 b43d
00000350: e141 133e 266e f1bd c140 b4bd 4a9d 813d
00000360: 0809 0cbd ae0d c2bd 828a 7639 2a5c b43d
00000370: 36e6 dabd df88 a93d 7924 f7bd d22b cdbd
00000380: 00bc 01be 9835 90bc 5b39 ddbd ce46 f0bd
00000390: d0c3 96bd 60c8 24be 7b6b 9ebd d46a 2e3c
000003a0: 2bc8 e7bc 0adb 2abe ab03 df3d a4bc 073d
000003b0: 2145 263d 4a3a 913d 7205 94bd 2832 05be
000003c0: 9418 cebd 1e8e 6cbd fde1 833d f40f 713d
000003d0: d6c3 413d ddcc 5ebd ef97 fc3d d21f 1a3e
000003e0: 6228 96bc 3d73 4e3e f905 c4ba 13df 943d
000003f0: 8ea0 87be b23c 7fbc 62aa 953d 285e ad3d

sequential/conv2d_1/Conv2D;StatefulPartitionedCall/sequential/conv2d_1/Conv2D f4 [32, 3, 3, 16]
0.1069428 -0.059880424 0.02527403 -0.37869614 0.052782837 -0.18636487 -0.18771723 0.049122926
-0.10624875 -0.08428653 0.06766163 -0.41348857 -0.024805423 -0.05300487 -0.084751435 0.18815365
0.07638541 0.03692288 0.07718265 -0.20121565 0.043448832 -0.21364908 0.04882603 0.15224606
-0.08533716 -0.06007756 0.042038504 -0.046495214 0.047410976 -0.153707 -0.01608222 0.0066858013
0.12197289 0.066508494 -0.046451457 -0.008176722 0.12904656 0.24619432 0.1254367 -0.0043720645
0.017972533 -0.1444708 0.19958249 0.07947572 -0.047257636 0.009623028 0.07485949 0.12724173
0.057629682 -0.060881287 0.03571221 -0.1815441 -0.09446901 -0.06970975 -0.23879938 0.06847461
-0.006484535 0.035414778 0.0059385607 -0.07679511 -0.05195439 0.091213875 -0.09247922 0.092972115
0.24198811 -0.053557053 0.017154172 -0.271147 0.08175436 -0.2270801 0.09235666 0.20174804
-0.20145637 0.007108932 -0.12282066 -0.09958216 -0.097346574 -0.053867877 -0.07341893 0.08625817
0.19245964 0.20389594 -0.13293666 0.08717067 -0.03295105 0.071824275 0.22808982 0.09590092
-0.16575333 -0.06800831 -0.12031209 -0.0620209 -0.037618626 -0.17481229 -0.0828109 -0.047519065
-0.022140838 -0.0069848346 -0.11016765 -0.17314547 0.01375155 -0.014864222 -0.06271754 0.09640674
-0.05525116 -0.13149308 0.026871275 -0.026610168 0.11101 0.025915818 0.008555994 -0.10468138
0.302405 0.026970604 0.09168835 -0.24770677 0.055297453 -0.18832423 -0.1089728 0.32822904
-0.17497437 -0.104328796 -0.095683865 -0.2935968 0.013211658 -0.0482434 -0.028444517 0.08196714
0.086976185 0.18300924 -0.015858779 -0.10567734 0.0119796675 -0.065614566 0.19546829 0.29115632
-0.11711068 0.00059601286 -0.15615267 0.037214067 -0.13493063 0.061224114 0.070402145 0.0864649
0.15475377 0.18387985 0.11027825 0.09528363 -0.13157164 -0.24766378 -0.007534043 -0.12421484
0.1731124 0.36082536 -0.16666335 0.25985366 -0.049597077 0.043173004 0.0017759004 -0.052129712
-0.018721914 -0.00840446 -0.16826524 0.052767538 -0.10537628 -0.0024287915 -0.037391897 0.15478842
-0.19318545 -0.04993818 -0.1608735 -0.16979581 -0.055502284 -0.0088704 -0.050630327 -0.10253762
0.057998173 -0.005197892 -0.056872115 -0.21960923 -0.009069587 -0.09607377 -0.14991546 0.14910856
-0.08494404 0.09105219 -0.15026638 -0.0964216 0.018520975 0.016435139 -0.08496264 0.033413004
0.111024715 0.31853047 0.28868923 0.065630056 -0.28139707 -0.34261006 0.17547514 -0.17540562
0.123001434 0.5304668 -0.07272813 0.34669837 -0.21711859 -0.13076276 -0.022311559 -0.033197325
-0.12841566 0.10929218 -0.10645056 -0.11239949 -0.0047004535 0.0008795659 -0.08606631 0.049712516
-0.027093265 -0.17347151 -0.10645119 -0.12898636 -0.00031276135 0.010243356 0.001998151 -0.12786786
-0.12200873 -0.025280913 -0.09476479 -0.062415432 -0.19478375 -0.0907657 -0.04740058 0.058573075
0.08812411 0.037833434 -0.13993403 0.008895129 -0.033808544 0.11441666 0.012912251 0.009501345
0.2859988 0.21643159 0.33425006 0.17441672 -0.1987686 -0.20435297 0.22018129 -0.3076608
0.29445165 0.492888 -0.054218534 0.35075542 -0.35718682 -0.0973295 0.033468347 0.016305938
00000000: d404 db3d 2d45 75bd 7c0b cf3c 76e4 c1be
00000010: d132 583d 6fd6 3ebe f238 40be 1f35 493d
00000020: f298 d9bd 6b9e acbd 2e92 8a3d c6b4 d3be
00000030: be34 cbbc a21b 59bd 2992 adbd 5aab 403e
00000040: f46f 9c3d 723c 173d f011 9e3d 7a0b 4ebe
00000050: 67f7 313d d3c6 5abe cefd 473d 64e6 1b3e
00000060: 40c5 aebd e313 76bd 9130 2c3d c471 3ebd
00000070: 0332 423d 5e65 1dbe dcbe 83bc 9114 db3b
00000080: eccc f93d 9b35 883d e243 3ebd a8f7 05bc
00000090: c824 043e 5d1a 7c3e 7a72 003e 8943 8fbb
000000a0: 223b 933c 27f0 13be 5a5f 4c3e 2bc4 a23d
000000b0: 3991 41bd e8a9 1d3c ef4f 993d a84b 023e
000000c0: 1a0d 6c3d a85e 79bd f746 123d b2e6 39be
000000d0: f878 c1bd fcc3 8ebd d387 74be 6b3c 8c3d
000000e0: 397c d4bb 160f 113d 4298 c23b c146 9dbd
000000f0: 20ce 54bd 57ce ba3d bf65 bdbd 2a68 be3d
00000100: bbcb 773e a45e 5bbd e886 8c3c c8d3 8abe
00000110: d46e a73d b087 68be 7d25 bd3d 0a97 4e3e
00000120: 944a 4ebe 0bf2 e83b 6689 fbbd bbf1 cbbd
00000130: a45d c7bd 90a4 5cbd aa5c 96bd 20a8 b03d
00000140: 2414 453e 19ca 503e 8c20 08be 8986 b23d
00000150: aef7 06bd 9b18 933d 6190 693e b467 c43d
00000160: 3ebb 29be f147 8bbd 2f66 f6bd a109 7ebd
00000170: fd15 1abd fe01 33be c398 a9bd 5aa3 42bd
00000180: b460 b5bc 0ae1 e4bb 949f e1bd 0c4d 31be
00000190: 2e4e 613c 1189 73bc 0e72 80bd e670 c53d
000001a0: 0a4f 62bd 1fa6 06be 2621 dc3c 91fd d9bc
000001b0: 3659 e33d 694d d43c 712e 0c3c 3163 d6bd
000001c0: d4d4 9a3e 75f1 dc3c 1ac7 bb3d d8a6 7dbe
000001d0: 957f 623d 11d8 40be 222d dfbd a30d a83e
000001e0: 7b2c 33be 56aa d5bd e7f5 c3bd 5252 96be
000001f0: b675 583c df9a 45bd 7a04 e9bc 63de a73d
00000200: 9220 b23d c666 3b3e 45ea 81bc 5c6d d8bd
00000210: 5e46 443c ee60 86bd d728 483e 7112 953e
00000220: b9d7 efbd bf3d 1c3a 7ce6 1fbe c76d 183d
00000230: 412b 0abe 23c6 7a3d 002f 903d 8214 b13d
00000240: c677 1e3e 004b 3c3e 90d9 e13d 1024 c33d
00000250: b7ba 06be 939b 7dbe 22e0 f6bb 5a64 febd
00000260: 6144 313e 1abe b83e cca9 2abe 8a0b 853e
00000270: 4e26 4bbd 2dd6 303d 54c5 e83a f785 55bd
00000280: b35e 99bc dcb2 09bc b94d 2cbe c622 583d
00000290: 85cf d7bd 5c2c 1fbb 3f28 19bd db80 1e3e
000002a0: 68d2 45be fa8b 4cbd 06bc 24be f4de 2dbe
000002b0: 5d56 63bd 2755 11bc bf61 4fbd 3eff d1bd
000002c0: 7e8f 6d3d 1453 aabb bcf2 68bd 3ee1 60be
000002d0: 9b98 14bc 53c2 c4bd 7083 19be eaaf 183e
000002e0: 24f7 adbd 9279 ba3d 6edf 19be b078 c5bd
000002f0: 4db9 973c fca2 863c e500 aebd 13dc 083d
00000300: ed60 e33d 6d16 a33e 13cf 933e 0d69 863d
00000310: 4713 90be 966a afbe c1af 333e 889d 33be
00000320: 2de8 fb3d accc 073f 7cf2 94bd 7382 b13e
00000330: 5654 5ebe ace6 05be bbc6 b6bc ebf9 07bd
00000340: 657f 03be 94d4 df3d c002 dabd b431 e6bd
00000350: 4306 9abb ab92 663a 8943 b0bd 5a9f 4b3d
00000360: b2f2 ddbc 84a2 31be 1503 dabd 0015 04be
00000370: 1efa a3b9 c0d3 273c 69f3 023b cbef 02be
00000380: b7df f9bd eb19 cfbc 0b14 c2bd 53a7 7fbd
00000390: 6475 47be 5ee3 b9bd 1c27 42bd 52ea 6f3d
000003a0: 6a7a b43d 3bf7 1a3d de4a 0fbe e0bc 113c
000003b0: d47a 0abd 4853 ea3d e88d 533c 88ab 1b3c
000003c0: 6f6e 923e 3ea0 5d3e d322 ab3e 4c9a 323e
000003d0: ff89 4bbe e841 51be 3477 613e b785 9dbe
000003e0: 5ec2 963e d15b fc3e 4114 5ebd 3796 b33e
000003f0: 31e1 b6be b054 c7bd 1b16 093d 0894 853c

sequential/conv2d_2/Conv2D;StatefulPartitionedCall/sequential/conv2d_2/Conv2D f4 [64, 2, 2, 32]
-0.061909903 0.07750177 0.07417334 -0.39746165 0.10228976 -0.41893888 -0.75105584 -0.10961434
0.13725956 0.03982922 -0.52494127 0.19195615 0.021886358 -0.0908576 0.034924045 -0.52269113
-0.1933124 -0.19658749 -0.21488558 0.09513763 -0.032054305 -0.10058487 0.13215186 -0.043467425
-0.1308287 0.03962545 0.006441598 0.30306664 -0.11745567 0.0649898 -0.291023 -0.028884472
-0.16643149 -0.06920436 -0.0054748855 -0.1022822 -0.016280124 -0.2872841 0.067720756 0.08029755
0.39517006 0.06636705 -0.2177055 0.09435771 -0.094983965 -0.0381113 0.017301768 0.2225325
0.018897139 -0.2860306 0.15512209 -0.06155986 -0.14713365 0.074964516 -0.19769087 0.08044074
0.03830609 -0.26536718 -0.015836038 0.05381039 0.046944104 -0.07104763 0.08482759 -0.05885495
-0.10804984 0.07101992 0.010905738 -0.28158084 -0.06940146 -0.0786146 -0.18247761 0.06891345
-0.09983088 -0.080936186 -0.15447691 -0.0036369243 -0.01947844 -0.1319979 -0.16742164 -0.46980488
-0.0014726334 -0.326849 -0.42740843 0.087655775 0.059642892 -0.04109225 0.03443572 -0.14938109
-0.27718168 -0.107530564 0.030855631 0.07729724 0.077629 -0.23521702 0.09437535 -0.091480576
0.10461279 -0.0908077 0.04482356 0.049126457 0.10554275 -0.08324601 0.16096935 -0.01767041
0.123135276 0.17117622 0.25990948 0.059002 -0.09361395 -0.06971117 -0.12422324 0.08849698
-0.1308006 0.05868389 0.057971228 -0.06692239 0.027592208 -0.09438762 0.04660935 0.010548086
0.01949104 0.04057638 -0.10912497 -0.14263134 0.09424905 -0.056214854 0.07228742 -0.063330576
0.037720405 0.053914107 -0.06443662 -0.09474388 -0.048344903 -0.32281864 -0.121783584 -0.06622348
0.3319677 -0.13961267 -0.053068016 0.181908 -0.0063302815 -0.16574387 -0.039258692 -0.02061229
-0.14916356 0.37089685 0.438675 -0.016214484 0.052702185 0.047494575 -0.058046695 0.17746255
-0.15854137 0.048710257 -0.0056014988 0.1869246 -0.26700628 -0.044547632 -0.13399163 -0.06520342
-0.23260333 -0.08068097 0.09806569 -0.16778165 0.006304735 -0.1421155 -0.07725812 -0.107683904
0.2290527 -0.23067755 -0.3191752 0.0765808 -0.094064385 0.06965634 -0.026546577 0.27045307
-0.21996573 -0.048581056 0.14634472 -0.12826586 -0.0009303536 -0.06452264 -0.21445753 -0.013178319
-0.12220684 -0.045711108 -0.046321828 -0.03049687 -0.04697269 0.017963782 -0.05937343 0.09658614
0.09024239 0.062959105 0.108193606 -0.34736338 -0.08206475 -0.45091808 -0.26106265 -0.01044019
0.11339628 -0.085649386 -0.04425883 -0.015338629 0.08819467 -0.004628106 -0.0022558568 -0.15469983
0.16589464 0.4488197 -0.22700676 0.059339035 0.04290001 0.110985 -0.23293066 0.08230461
-0.22953801 -0.3723271 -0.056887202 -0.09073139 -0.30314633 0.04140088 -0.36088496 0.09155525
-0.14127365 -0.18717186 0.019089358 -0.15838404 0.037667736 -0.19873707 0.25757787 0.035898495
0.07235109 -0.11436085 -0.335991 0.07068989 0.055064112 -0.032398243 -0.11736369 0.25691804
-0.14553344 0.03945692 0.15372364 0.10420586 -0.041516114 -0.027044369 -0.042674426 -0.055443898
-0.074026555 -0.3775471 -0.1162903 -0.20977701 0.055079363 0.024732828 0.088385954 0.028436951
00000000: 3d95 7dbd 3fb9 9e3d 31e8 973d 1880 cbbe
00000010: 4b7d d13d 287f d6be 3245 40bf 7c7d e0bd
00000020: c58d 0c3e f723 233d 8d62 06bf 2790 443e
00000030: 054b b33c 8d13 babd 840c 0f3d 16cf 05bf
00000040: b0f3 45be 3b4e 49be f70a 5cbe 85d7 c23d
00000050: 604b 03bd 71ff cdbd d152 073e e60a 32bd
00000060: f5f7 05be 4c4e 223d 0a14 d33b 8d2b 9b3e
00000070: 998c f0bd 5f19 853d f700 95be 219f ecbc
00000080: 046d 2abe 04bb 8dbd ab66 b3bb 5479 d1bd
00000090: e55d 85bc e716 93be 2eb1 8a3d 0b73 a43d
000000a0: bb53 ca3e 73eb 873d 31ee 5ebe 9d3e c13d
000000b0: f486 c2bd 981a 1cbd 70bc 8d3c 8fdf 633e
000000c0: 2cce 9a3c 9a72 92be 53d8 1e3e 3126 7cbd
000000d0: 34aa 16be ff86 993d 7a6f 4abe 1dbe a43d
000000e0: d9e6 1c3d 35de 87be 94ba 81bc 4968 5c3d
000000f0: 7648 403d 6b81 91bd 16ba ad3d e311 71bd
00000100: 3c49 ddbd e472 913d fbad 323c 5d2b 90be
00000110: 5a22 8ebd b100 a1bd 69db 3abe 7f22 8d3d
00000120: 2274 ccbd dfc1 a5bd 322f 1ebe 7759 6ebb
00000130: 4091 9fbc 752a 07be 9470 2bbe 448a f0be
00000140: 6105 c1ba c158 a7be 47d5 dabe df84 b33d
00000150: 1b4c 743d 5950 28bd 780c 0d3d 5bf7 18be
00000160: c2ea 8dbe fc38 dcbd f3c4 fc3c 044e 9e3d
00000170: f4fb 9e3d bbdc 70be dd47 c13d 2b5a bbbd
00000180: 3b3f d63d 63f9 b9bd e998 373d d338 493d
00000190: cc26 d83d e27c aabd 26d5 243e 89c1 90bc
000001a0: 592e fc3d d248 2f3e db12 853e 15ac 713d
000001b0: acb8 bfbd bbc4 8ebd c168 febd e83d b53d
000001c0: 98f0 05be 855e 703d 3d73 6d3d 9b0e 89bd
000001d0: 0e09 e23c 4c4e c1bd 72e9 3e3d e1d1 2c3c
000001e0: acab 9f3c 6b33 263d ea7c dfbd f30d 12be
000001f0: a505 c13d 8c41 66bd 6d0b 943d 76b3 81bd
00000200: b680 1a3d 0ad5 5c3d 59f7 83bd 1409 c2bd
00000210: 4e05 46bd 7c48 a5be ac69 f9bd 2da0 87bd
00000220: acf7 a93e a0f6 0ebe d95d 59bd 1746 3a3e
00000230: 406e cfbb c3b8 29be b9cd 20bd 1bdb a8bc
00000240: 55be 18be 31e6 bd3e 029a e03e 3dd4 84bc
00000250: 3fde 573d ac89 423d 5fc2 6dbd beb8 353e
00000260: ab58 22be 6884 473d c78c b7bb 2a69 3f3e
00000270: 0cb5 88be 9477 36bd 1a35 09be 5f89 85bd
00000280: 912f 6ebe 103c a5bd aad6 c83d f4ce 2bbe
00000290: f397 ce3b ba86 11be 8139 9ebd 6189 dcbd
000002a0: ca8c 6a3e bc36 6cbe ef6a a3be 65d6 9c3d
000002b0: d4a4 c0bd fca7 8e3d 3578 d9bc d378 8a3e
000002c0: b23e 61be eefc 46bd 64db 153e 2058 03be
000002d0: f9e2 73ba 7224 84bd c19a 5bbe e0e9 57bc
000002e0: 9447 fabd 923b 3bbd f5bb 3dbd 92d4 f9bc
000002f0: 6f66 40bd c828 933c 8e31 73bd f4ce c53d
00000300: 01d1 b83d b4f0 803d 9c94 dd3d 9dd9 b1be
00000310: 9011 a8bd bcde e6be 01aa 85be 550d 2bbc
00000320: 4f3c e83d f268 afbd bf48 35bd df4e 7bbc
00000330: 689f b43d 5ea7 97bb ffd6 13bb a269 1ebe
00000340: 49e0 293e b2cb e53e 7674 68be 7d0d 733d
00000350: ecb7 2f3d 1b4c e33d 6085 6ebe 528f a83d
00000360: 030c 6bbe a8a1 bebe 8e02 69bd 61d1 b9bd
00000370: ff35 9bbe f893 293d eac5 b8be 5281 bb3d
00000380: 0aaa 10be fba9 3fbe 4961 9c3c 6d2f 22be
00000390: 7c49 1a3d bb81 4bbe 3fe1 833e 4d0a 133d
000003a0: cf2c 943d 0536 eabd 0307 acbe dcc5 903d
000003b0: e88a 613d 05b4 04bd 605c f0bd c38a 833e
000003c0: b806 15be 949d 213d bb69 1d3e e269 d53d
000003d0: cd0c 2abd 278c ddbc 61cb 2ebd 2419 63bd
000003e0: 3c9b 97bd da4d c1be 9c29 eebd c9cf 56be
000003f0: e69a 613d 809c ca3c b203 b53d 9cf4 e83c
